Assignment_2B/checkpoints/saved_models/lstm_20250513_121614/final_lstm_20250513_121614_weights.npz (npz, 200466 bytes, 38 tensors)

arr_0 f4 [137, 32]
0	0xbc343ee0	-0.011001319
1	0x3d16b4bb	0.03679345
2	0x3ca7d4de	0.020487245
3	0x3c607c0b	0.013701449
4	0xbc6d80cf	-0.014496042
5	0xbc053709	-0.008130797
6	0x3cbc5f9b	0.022994807
7	0xbd0843be	-0.03326773
8	0xbbca2cf7	-0.006169911
9	0x3bcee892	0.0063143456
10	0xbc8e487c	-0.017368548
11	0xbc849b36	-0.016187292
12	0xbb9882cd	-0.0046542645
13	0x3adddd69	0.0016926947
14	0x3c634750	0.013871983
15	0xbc1f0b0f	-0.009707226
16	0x3d0994fa	0.03358934
17	0x3c98bc69	0.018644528
18	0xbc907324	-0.017633028
19	0x3ce652c4	0.028115638
20	0x3d7552cb	0.05989341
21	0x3c8fa076	0.017532568
22	0x3c1ef434	0.009701777
23	0x3cbda91c	0.023151927
24	0xbd0cbab0	-0.034357727
25	0xbd856369	-0.065131016
26	0xbbc80cfa	-0.0061050626
27	0xbd02e43d	-0.031955946
28	0xbb5e4f49	-0.003392177
29	0xbc4bcda6	-0.012439167
30	0xbba08f32	-0.0048998827
31	0xbcfbc468	-0.030733302
32	0x3d578ed4	0.052626446
33	0x3d1a7a98	0.03771457
34	0xbc8e62f7	-0.017381174
35	0xbdd54b6f	-0.104147784
36	0xbbbde93c	-0.005795626
37	0xbd117946	-0.035516046
38	0x3c6fa00f	0.014625563
39	0x3d629999	0.055322263
40	0xbd09a6e2	-0.033606417
41	0x3c5a3dd0	0.013320401
42	0xbbf73fd9	-0.007545453
43	0x3c8bd2a1	0.01706821
44	0xbbb0adc3	-0.0053918078
45	0x3db56ec1	0.08859015
46	0x3a3239a0	0.0006798748
47	0xbcf32e0f	-0.029685048
48	0x3b612b57	0.0034358108
49	0x3c4578ac	0.012052696
50	0x3a0aac84	0.0005289989
51	0xbd2cc65d	-0.04218136
52	0x3d2e1c7d	0.042507637
53	0xbcfc7e65	-0.030821988
54	0x3d360bc3	0.04444481
55	0xbb869cbd	-0.00410804
56	0xbd0f0acc	-0.034922406
57	0x3b65b852	0.003505249
58	0xbd75deec	-0.060027048
59	0x3d4fae33	0.05070324
60	0xbb9fab09	-0.004872684
61	0xbb90bc25	-0.00441696
62	0x3c029389	0.007969745
63	0x3d219088	0.039444476
64	0x3c2bd645	0.010488098
65	0x3c110ac7	0.008852667
66	0xbd572d39	-0.052533362
67	0x3b005cf6	0.001958666
68	0xbbf4bc50	-0.0074687377
69	0x3b432122	0.0029774387
70	0x3c65aad2	0.0140177775
71	0x3bb1d040	0.0054264367
72	0xbbc0d3f1	-0.0058846404
73	0xbd203d07	-0.0391207
74	0xbd81138c	-0.063025564
75	0xbd3aa8bc	-0.045571074
76	0xbd916b52	-0.07100548
77	0x3b6c3979	0.0036044999
78	0x3ced6aab	0.028981527
79	0xbdd304f3	-0.10303678
80	0xbcb60583	-0.022219425
81	0x3d29945d	0.041401256
82	0xbd92552d	-0.07145152
83	0xbcc99b5a	-0.02461021
84	0x3d0198eb	0.031639975
85	0x3c3aae9a	0.011394167
86	0x3d25f5c9	0.040517602
87	0xbd07a782	-0.033118732
88	0x3c998e3f	0.018744586
89	0xbd2eecd8	-0.04270634
90	0xbc6ab187	-0.014324552
91	0x3acfa229	0.0015841174
92	0xbcf226b1	-0.029559465
93	0x3d11f900	0.035637856
94	0x3d10c9e8	0.035348803
95	0xbd3fa857	-0.0467914
96	0x3ce02ddd	0.02736562
97	0x3c3f23b6	0.011666229
98	0xbd5e8ad8	-0.05433163
99	0xbd606067	-0.054779436
100	0xbd58fc47	-0.052974965
101	0xbbbb9659	-0.00572471
102	0xbc5b78e0	-0.013395518
103	0x3cafcf06	0.021461021
104	0x3bf6b92c	0.0075293984
105	0xbd0505d6	-0.03247627
106	0xbdc20bb2	-0.09474887
107	0xbc6e2d98	-0.014537238
108	0xbd93c1b9	-0.07214684
109	0x3cbbe825	0.022937844
110	0x3c4941e2	0.012283774
111	0xbd980e30	-0.07424581
112	0xbd7936c7	-0.060843255
113	0x3d84ae15	0.06478516
114	0xbdd45c70	-0.103691936
115	0xbce37336	-0.027764898
116	0x3cef2ad3	0.029195225
117	0xbc59be2d	-0.01328997
118	0x3d6558c1	0.055992845
119	0xbcadec2c	-0.02123078
120	0x3ba45888	0.0050154366
121	0xbd594ce0	-0.05305183
122	0xbbef6ba4	-0.007306533
123	0x3d64c392	0.055850573
124	0xbdaf4b97	-0.085593395
125	0xbc61d338	-0.013783269
126	0x3d509c80	0.0509305
127	0x396f2475	0.00022806397
128	0x3d802c85	0.062584914
129	0xbaf81366	-0.001892668
130	0xbdc39ffc	-0.09551999
131	0xbd585784	-0.052817836
132	0xbd09dca6	-0.033657692
133	0x3d030860	0.03199041
134	0xbbc471f6	-0.0059950305
135	0x3cd1c469	0.025606351
136	0xbc79b190	-0.015240088
137	0xbd445de5	-0.047941107
138	0xbde565ca	-0.11201055
139	0xbcac43ae	-0.021028366
140	0xbd9c6756	-0.07636897
141	0x3d660b1e	0.056162946
142	0x3ba25b2a	0.0049547153
143	0xbddee334	-0.10883179
144	0xbd731325	-0.05934443
145	0x3d90d535	0.07071916
146	0xbdbaf0e9	-0.09127981
147	0xbd884742	-0.06654216
148	0x3c06a3b3	0.00821774
149	0x3cdfb86c	0.027309619
150	0x3d00f0cd	0.031479646
151	0xbc852795	-0.016254226
152	0x3d6870c3	0.056748163
153	0xbd9b1cc0	-0.07573843
154	0xbceaef89	-0.028678672
155	0xbbb4b3dc	-0.005514605
156	0xbdbdf53e	-0.09275292
157	0xbcf14717	-0.029452844
158	0x3d33b12a	0.04387013
159	0xbcf2faf5	-0.029660681
160	0x3ca3e352	0.020005856
161	0x3ca72260	0.020402133
162	0x3bb97a14	0.005660305
163	0xbd032f21	-0.032027368
164	0x3ca083b0	0.019594043
165	0xbb8a374c	-0.0042180177
166	0xbcfb82a0	-0.030701935
167	0x3c8c6ff4	0.017143227
168	0xbb8544d7	-0.0040670442
169	0xbc96ee9a	-0.018424321
170	0x3b5afee7	0.0033416094
171	0x3c953755	0.01821486
172	0xbcd8c8c9	-0.02646293
173	0x3d340201	0.043947224
174	0xbc67da5f	-0.014151185
175	0xbcde1f3f	-0.027114509
176	0xbcb2762c	-0.021784864
177	0xbd22ade8	-0.03971663
178	0x3cf28e06	0.029608738
179	0x3cd3fada	0.025876451
180	0x3c110f76	0.008853784
181	0xbd27043d	-0.040775526
182	0x3d83e6e1	0.06440521
183	0xbd30eb94	-0.043193415
184	0x3c76df9e	0.015067963
185	0xbbafbd25	-0.005363124
186	0xbd159d18	-0.03652677
187	0x3bd8916e	0.0066091334
188	0xbc4f9dfb	-0.012671943
189	0x3c589e3a	0.013221318
190	0x3cdec73c	0.027194612
191	0xbbbee007	-0.005825046
192	0x3cd27cdd	0.025694305
193	0x3bd67091	0.0065441807
194	0xbc893288	-0.016747728
195	0xbd6ad2b8	-0.057329863
196	0x3ced2620	0.028948843
197	0x3c0328fa	0.008005375
198	0xbd0866a6	-0.03330102
199	0x3d24778b	0.040153068
200	0xbd1cd699	-0.038290594
201	0xbd10d1c3	-0.035356294
202	0x3ca39de5	0.01997275
203	0x3c8afbf4	0.016965844
204	0xbc91760c	-0.017756484
205	0x3da71ce4	0.08159807
206	0xbc638abe	-0.013888059
207	0xbd705039	-0.058670256
208	0xbd6ada4e	-0.057337098
209	0xbd28ff0b	-0.041258853
210	0x3ced98cf	0.029003529
211	0xbbde7887	-0.0067892703
212	0xbbe8cb1a	-0.0071042897
213	0xbcbc2611	-0.02296737
214	0x3cf00164	0.029297538
215	0xbd15050f	-0.036381777
216	0x3d050d54	0.032483414
217	0x3c2ddc57	0.010611615
218	0xbd881862	-0.06645276
219	0x3c2c4a6a	0.010515789
220	0xbccb45dd	-0.024813587
221	0x3c879c2e	0.016553964
222	0x3ce97679	0.028498875
223	0xbc81ed24	-0.015860148
224	0x3d54ff76	0.05200144
225	0xbc86adef	-0.01644036
226	0xbb816ae9	-0.0039495123
227	0xbcbf167c	-0.023326151
228	0x3d329a43	0.043604147
229	0xbcd8ebf5	-0.0264797
230	0xbd6d5742	-0.057944544
231	0x3c8031cc	0.015648745
232	0xbd7033c6	-0.058643125
233	0xbd919853	-0.07109132
234	0xbc5b0d16	-0.013369819
235	0x3b78ff82	0.0037994091
236	0xbd2e9691	-0.04262406
237	0x3da77f33	0.08178558
238	0xbd073452	-0.03300888
239	0xbd86436f	-0.06555831
240	0xbcc40960	-0.023930252
241	0xbcc939a0	-0.02456361
242	0x3d0b68e2	0.03403557
243	0xbbb2ee15	-0.0054605105
244	0xbdbdf5db	-0.09275409
245	0x3c41491c	0.011797216
246	0x3caea023	0.021316594
247	0xbc9b3511	-0.018946202
248	0x3d8be54e	0.06830846
249	0xbd070982	-0.03296805
250	0xbd5e3337	-0.05424806
251	0xbd042e0b	-0.032270472
252	0x3d008bd1	0.03138334
253	0x3dc650a3	0.09683349
254	0x3d0fbb37	0.03509065
255	0xbd4f1081	-0.05055285

arr_1 f4 [46]
0	0x3fe5d1e7	1.7954682
1	0x3f8074bb	1.0035623
2	0x3f68c938	0.90932035
3	0x3f7d4b51	0.9894305
4	0x3fe196d4	1.7624154
5	0x3f88382a	1.064214
6	0x3f68d192	0.9094478
7	0x3fd98605	1.6994025
8	0x3f8f0a61	1.1175042
9	0x3f846856	1.0344341
10	0x3f963976	1.1736286
11	0x3fa68530	1.3009396
12	0x3fc7a541	1.5597306
13	0x3fdf2d21	1.7435647
14	0x3f2bc465	0.6709655
15	0x3f219893	0.63123435
16	0x3f224bb2	0.6339675
17	0x3f2d870e	0.677842
18	0x3f21be8e	0.6318139
19	0x3f20cb7b	0.62810487
20	0x3f2da131	0.67824084
21	0x3f28a98d	0.65883714
22	0x3f1de181	0.61672217
23	0x3f214aa0	0.63004494
24	0x3f26a906	0.6510166
25	0x3f2cd71a	0.6751572
26	0x3f266f2c	0.65013385
27	0x3f1df0e2	0.61695683
28	0x3f1eb85e	0.6200007
29	0x3f27f63b	0.6561009
30	0x3f1d066c	0.61337924
31	0x3f224c65	0.6339782
32	0x3f21a428	0.6314111
33	0x3f2b3dc1	0.66891104
34	0x3f1f9c58	0.62347937
35	0x3f28644f	0.6577806
36	0x3f1f7b77	0.6229777
37	0x3f267820	0.65027046
38	0x3f180e87	0.59397167
39	0x3f23070a	0.63682616
40	0x3f2d6f12	0.67747605
41	0x3f13d049	0.5773969
42	0x3f2e1d5c	0.6801355
43	0x3f2cc0d1	0.67481714
44	0x3f1b4966	0.6065887
45	0x3f31a6e7	0.693953

arr_2 f4 [46]
0	0xbe38a671	-0.18032242
1	0x3f0422a1	0.5161534
2	0xbe23389b	-0.15939562
3	0x3ebd4a49	0.36970738
4	0x3ec12815	0.37725893
5	0xbe338f11	-0.17535044
6	0xbf0fb5bc	-0.5613668
7	0xbd8a127c	-0.06741807
8	0xbdc52228	-0.096256554
9	0xbc86fe28	-0.016478613
10	0xbce1dfae	-0.02757248
11	0xbe1a63f2	-0.15077189
12	0xbe1445f8	-0.14479816
13	0xbec3dbed	-0.38253728
14	0x3d032132	0.03201408
15	0x3e38bc05	0.18040474
16	0xbe2914c3	-0.16511826
17	0xbe0e492f	-0.13895105
18	0xbac0cce0	-0.0014709495
19	0xbe320ae8	-0.17386973
20	0x3c989604	0.01862622
21	0x3e27439c	0.16334385
22	0xbe3cf6e0	-0.1845355
23	0xbde95a2e	-0.113941535
24	0xbdc424a2	-0.095773
25	0x3d83c270	0.064335704
26	0xbd0e8e39	-0.034803603
27	0x3dbdacd2	0.092614785
28	0x3e03e9ba	0.12882128
29	0xbe236165	-0.15955122
30	0xbda4b6db	-0.080426894
31	0x3dfe2783	0.1240988
32	0xbe45dd82	-0.1932278
33	0x3d5371e4	0.051622286
34	0xbbc741f5	-0.0060808607
35	0xbe1bfedc	-0.1523394
36	0x3da79d25	0.0818427
37	0xbccbef43	-0.024894362
38	0x3d872f6d	0.066008426
39	0xbcaa31e6	-0.020775747
40	0xbe6008f7	-0.2187842
41	0x3ce38580	0.027773619
42	0xbe30c1a5	-0.1726137
43	0x3dedbe4f	0.11608564
44	0x3d22e4a7	0.03976884
45	0xbdeda561	-0.11603809

arr_3 f4 [46]
0	0xbb2edc91	-0.002668176
1	0xbcd22f01	-0.025657179
2	0x3d819408	0.06327063
3	0x3b464cb4	0.003025812
4	0xbc0a74ae	-0.00845067
5	0x3e9a08d4	0.3008486
6	0x35d8d2d9	1.6154619e-06
7	0x398e9dec	0.00027202012
8	0xbb481e96	-0.0030535809
9	0xbb53e120	-0.003233023
10	0xbb13385f	-0.002246402
11	0xbb437d8a	-0.0029829466
12	0x39d43e69	0.0004048229
13	0xbb1cae9e	-0.002390779
14	0x3b968c23	0.0045943423
15	0x3bd7bb8c	0.0065836366
16	0xbc31dde1	-0.010856123
17	0xbbe1114d	-0.0068685175
18	0xb9d60964	-0.00040824257
19	0xbb616693	-0.0034393414
20	0xbbf0c8b8	-0.0073481463
21	0x3c47239e	0.012154488
22	0xbc4aacb4	-0.012370277
23	0xbbd40f5d	-0.006471558
24	0xbb1c7fd3	-0.00238799
25	0x396ae0de	0.00022399749
26	0xbc82ab41	-0.0159508
27	0x3b6339a2	0.0034671803
28	0x3b767ddf	0.0037611646
29	0xbbd21b28	-0.0064119287
30	0xbb84585a	-0.0040388526
31	0xbb020694	-0.0019840347
32	0xba518e9f	-0.00079939695
33	0x3b762ef9	0.003756462
34	0x39865b62	0.00025626557
35	0xbb3b089d	-0.002853907
36	0xbb167fbe	-0.0022964324
37	0xbbe8e9c6	-0.007107946
38	0x3becb6fb	0.0072239614
39	0x3b382dfb	0.0028103578
40	0xbca02ba8	-0.019552067
41	0xb8cc2876	-9.7350145e-05
42	0xbc062775	-0.008188118
43	0x3b271129	0.0025492406
44	0x3b04803c	0.0020218035
45	0xbc2c874a	-0.010530302

arr_4 f4 [46]
0	0x3f7f4cb2	0.997264
1	0x3ef7b610	0.4838109
2	0x3f026d63	0.5094816
3	0x3f007bd5	0.5018895
4	0x3efe1a2b	0.4962934
5	0x3e570505	0.20998009
6	0x35d8ce4d	1.6153296e-06
7	0x3f805103	1.0024723
8	0x3f7f0a96	0.9962553
9	0x3f7eece8	0.9958024
10	0x3f7f182e	0.9964627
11	0x3f7f234c	0.99663234
12	0x3f7f0958	0.9962363
13	0x3f7ef381	0.9959031
14	0x3b31df5a	0.0027141185
15	0x3b032c62	0.0020015468
16	0x3b44b14a	0.00300129
17	0x3b374205	0.0027962935
18	0x3b0e1fb3	0.0021686375
19	0x3b166443	0.0022947944
20	0x3b22803b	0.002479567
21	0x3b424647	0.002964394
22	0x3b127888	0.0022349674
23	0x3b044386	0.0020181849
24	0x3b2d6d91	0.0026463012
25	0x3b3d5999	0.0028892516
26	0x3b1e9718	0.0024198946
27	0x3b3074e8	0.002692515
28	0x3b37c203	0.0028039224
29	0x3b0f52b6	0.0021869368
30	0x3b2b6791	0.002615426
31	0x3aedb022	0.0018134157
32	0x3b2864d3	0.0025694862
33	0x3b1f1d7d	0.002427905
34	0x3b13fc55	0.0022580822
35	0x3b1cf882	0.0023951833
36	0x3b2ae1fb	0.0026074636
37	0x3b2e7a86	0.0026623323
38	0x3b1f518e	0.0024310085
39	0x3b13bf47	0.002254443
40	0x3b3d5574	0.0028890045
41	0x3b158fa7	0.002282122
42	0x3b08f565	0.002089822
43	0x3b312f54	0.0027036266
44	0x3af8787b	0.0018956804
45	0x3b286740	0.0025696307

arr_5 f4 [46, 256]
0	0xbea976d6	-0.33098477
1	0x3e2421f4	0.16028577
2	0x3d433e49	0.04766682
3	0x3e4e721e	0.2016072
4	0x3e256ada	0.16154042
5	0x3e1226e3	0.14272647
6	0x3dbbc37c	0.09168145
7	0xbc118bf7	-0.008883468
8	0x3df65823	0.120285295
9	0xbbd6fe38	-0.006561067
10	0x3d6522c5	0.055941362
11	0xbc0b4185	-0.008499508
12	0x3d0e0f86	0.034682773
13	0xbee18104	-0.44043744
14	0x3e64ef0d	0.22356816
15	0x3d76bb6f	0.060237344
16	0xbe19e539	-0.15028848
17	0x3d32e611	0.04367644
18	0xbd9fbab3	-0.07799282
19	0xbe049870	-0.12948775
20	0xbe83b0d6	-0.25720853
21	0xbe60d0e3	-0.21954684
22	0xbe426f2d	-0.18987723
23	0xbdb99c9a	-0.090630725
24	0xbf0ef149	-0.5583692
25	0x3e355909	0.17709745
26	0x3d3a91c8	0.045549184
27	0x3d6aada2	0.057294495
28	0x3dbe2038	0.09283489
29	0x3e0ed6b2	0.13949087
30	0xbdf18126	-0.11792211
31	0xbdc26374	-0.094916254
32	0xbc00c55e	-0.007859556
33	0xbd83721d	-0.0641825
34	0x3ea306d5	0.3184115
35	0x3e589b03	0.21152882
36	0x3e8e2bff	0.2776794
37	0x3debb8a5	0.115098275
38	0xbe4dfe9b	-0.20116656
39	0xbdbbee60	-0.09176326
40	0xbe1eb5be	-0.15499017
41	0x3e3dae96	0.1852363
42	0xbcc4f85f	-0.024044214
43	0xbcea2bdb	-0.028585365
44	0x3dde2fb9	0.10848946
45	0xbacd959b	-0.0015684845
46	0x3c9b64a6	0.018968891
47	0x3cfebb2c	0.03109511
48	0xbeb6d23f	-0.3570728
49	0x3eb6221d	0.355729
50	0xbd536bc6	-0.051616453
51	0xbdf1a3f1	-0.117988475
52	0xbd5a6150	-0.05331546
53	0x3e0a1241	0.13483526
54	0xbd34cc4c	-0.044140145
55	0x3e17add3	0.14812402
56	0xbce240a1	-0.027618708
57	0x3c217e9d	0.009856847
58	0xbe89a4d4	-0.26883566
59	0x3d8766f3	0.06611433
60	0xbc1b3a72	-0.009474384
61	0xbd84c002	-0.06481935
62	0xbe10ebac	-0.14152402
63	0x3ecdf506	0.40226
64	0x3d8697a0	0.06571889
65	0xbd28d68d	-0.041220237
66	0x3cc38332	0.02386627
67	0x3ec823ca	0.39089805
68	0xbdee6c05	-0.11641697
69	0x3d656b9b	0.056010824
70	0xbcd9bf31	-0.026580425
71	0xbe854cce	-0.2603516
72	0x3e208b30	0.15678096
73	0xbe67fb5d	-0.22654481
74	0x3e78534c	0.24250525
75	0x3d56192c	0.0522701
76	0x3d9f7f00	0.07787895
77	0xbe207c9a	-0.15672532
78	0xbd06e5ee	-0.03293412
79	0xbd8a868e	-0.067639455
80	0xbd3345ff	-0.043767925
81	0x3dc35787	0.09538179
82	0xbd0a5384	-0.033771053
83	0xbc9f67fa	-0.01945876
84	0xbda9ae9b	-0.082852565
85	0xbe396918	-0.18106496
86	0x3bd95848	0.0066328384
87	0xbd0e32eb	-0.034716528
88	0x3defb556	0.11704509
89	0x3bc5e2df	0.006039008
90	0xbd3621d1	-0.044465844
91	0x3d461b4c	0.048365876
92	0xbdda8755	-0.10670344
93	0x3d83815d	0.064211585
94	0xbd0b34c6	-0.033985876
95	0xbd5e914f	-0.054337796
96	0xbe071076	-0.13189873
97	0xbd37d956	-0.044885002
98	0x3e0a4f50	0.13506818
99	0x3d70627d	0.058687676
100	0x3e8e66d6	0.27812833
101	0x3c55dfb2	0.013053821
102	0xbdb07a6a	-0.08617099
103	0xbe0e9bb7	-0.13926588
104	0xbea2fb69	-0.31832436
105	0xbc9fa0df	-0.019485889
106	0xbe56d01d	-0.20977826
107	0xbb0f0b14	-0.0021826671
108	0x3d94051a	0.072275355
109	0xbcaa4c48	-0.020788327
110	0x3c805adc	0.015668325
111	0x3dcbd30e	0.09952365
112	0xbdb52ec3	-0.0884681
113	0x3e845319	0.25844648
114	0xbe226041	-0.1585703
115	0x3cef0f1a	0.029182006
116	0x3c6b260e	0.014352335
117	0x3f04926c	0.5178592
118	0xbdc3bc39	-0.09557385
119	0x3d1461f1	0.036226217
120	0xbde90939	-0.11378712
121	0x3dc8544a	0.09781702
122	0x3ddb9f4a	0.10723741
123	0x3e2eb956	0.17062888
124	0x3db6ff1a	0.089353755
125	0xbce8111c	-0.02832847
126	0xbe2ab873	-0.16671924
127	0x3d872dbe	0.066005215
128	0xbe06348b	-0.13105981
129	0x3dc76c17	0.097374134
130	0xbda46134	-0.080263525
131	0xbbc16ece	-0.0059031015
132	0xbd805124	-0.06265476
133	0xbec4cf63	-0.38439474
134	0xbd61c03c	-0.05511497
135	0xbe91dc42	-0.28488356
136	0xbdda8ece	-0.10671769
137	0xbecbc52d	-0.3979887
138	0xbeb6f92e	-0.35736984
139	0xbd82a214	-0.0637857
140	0xb8b5afe2	-8.663513e-05
141	0x3f3cb58e	0.7371453
142	0x3e113011	0.14178492
143	0xbd79b49f	-0.06096327
144	0x3d50f120	0.051011205
145	0x3cb1731f	0.02166134
146	0x3f02ba95	0.5106595
147	0x3e97e588	0.29667306
148	0xbda251ec	-0.079257816
149	0xbd998030	-0.07495153
150	0xbd5eabfb	-0.054363232
151	0x3dbb76ff	0.09153556
152	0x3f109220	0.5647297
153	0x3e743c89	0.23851217
154	0xbd85f806	-0.06541447
155	0x3dfd2fdb	0.12362643
156	0xbdedbe3c	-0.1160855
157	0x3dec5850	0.11540282
158	0x3c9153f7	0.017740233
159	0x3e2922fc	0.16517252
160	0xbe46eddf	-0.19426678
161	0xbdc5c676	-0.09656994
162	0x3eac6da5	0.33677402
163	0x3daa2037	0.08306926
164	0xbdbe3ac8	-0.092885554
165	0x3ca20e54	0.019782223
166	0x3e1a955c	0.15096039
167	0x3d929bef	0.07158648
168	0xbee2e9bc	-0.4431895
169	0x3db2f907	0.087389044
170	0xbd0b9e29	-0.03408638
171	0xbc5baebd	-0.01340836
172	0x3e12ba45	0.14328869
173	0x3bda19b1	0.0066558947
174	0xbde5fde7	-0.11230069
175	0xbbe98a4c	-0.007127082
176	0x3edbc97d	0.4292716
177	0xbb81fb9b	-0.0039667613
178	0x3bd98279	0.006637868
179	0xbe14c6b4	-0.14528924
180	0x3de05b68	0.10954934
181	0x3e2ac159	0.16675319
182	0xbe34c915	-0.17654832
183	0x3ba4764f	0.0050189863
184	0xbd17f8ca	-0.037102498
185	0x3e577a44	0.21042734
186	0x3eb45cd3	0.3522707
187	0xbc503f33	-0.01271038
188	0x3e373920	0.17892885
189	0x3d78f99b	0.060784917
190	0x3e12ee0e	0.14348623
191	0x3d532328	0.0515472
192	0xbdeb19ec	-0.114795536
193	0x3e442c2d	0.19157477
194	0x3de4d63c	0.111736745
195	0xbd8dd0c1	-0.06924582
196	0x3d1e7707	0.038687732
197	0x3e8eab77	0.27865192
198	0x3d877ad3	0.06615224
199	0x3dea59e3	0.11442926
200	0xbe792b7b	-0.24332993
201	0x3f075afe	0.5287322
202	0x3eb982dd	0.36232653
203	0xbdb21110	-0.08694661
204	0xbd568b3f	-0.05237889
205	0xbf4b6476	-0.79450166
206	0xbd897a95	-0.06712834
207	0x3cd0054b	0.025393149
208	0x3eaa72bf	0.3329067
209	0x3e15c342	0.14625266
210	0xbbd53607	-0.0065066847
211	0x3e05de0c	0.13072985
212	0xbedd3820	-0.43206882
213	0xbd5a01fc	-0.05322455
214	0x3e37fdb4	0.17967874
215	0x3df0ef36	0.11764376
216	0xbe992e31	-0.29918054
217	0xbe17be43	-0.14818673
218	0x3eb8d303	0.3609849
219	0x3e4dc01f	0.2009282
220	0x3d5d2538	0.053990573
221	0x3dc5757d	0.0964155
222	0xbcc268b9	-0.023731576
223	0x3e1375e0	0.14400434
224	0xbe89997a	-0.26874906
225	0xbdc7aebb	-0.09750124
226	0x3ecb69c1	0.3972912
227	0xbe894e82	-0.2681771
228	0xbdd2bea8	-0.10290271
229	0xbe23e86d	-0.16006632
230	0x3cdb630b	0.026780626
231	0xbd6f0b9e	-0.05836069
232	0xbe60f52f	-0.2196853
233	0x3dc32e5e	0.09530328
234	0x3e8a4760	0.2700758
235	0xbd449e60	-0.0480026
236	0x3dd3351f	0.103128664
237	0xbc104437	-0.008805326
238	0x3d6cac09	0.057781253
239	0xbe32b43f	-0.17451571
240	0xbed252e1	-0.41078857
241	0xbe0b94f6	-0.13631043
242	0xbd2264a6	-0.039646767
243	0xbd6f22e1	-0.058382872
244	0x3dad01fb	0.08447643
245	0xbe90a035	-0.28247228
246	0xbd90041c	-0.07032034
247	0xbdc1dfa1	-0.09466482
248	0x3ca38b6e	0.019963946
249	0x3c1a083e	0.009401379
250	0xbdb73b47	-0.08946853
251	0x3ea7dceb	0.32785735
252	0xbe5dfb37	-0.21677862
253	0x3e6b8c06	0.23002633
254	0x3e9b663a	0.3035143
255	0xbdfd8c78	-0.12380308

arr_6 f4 [64, 256]
0	0xbe0205a1	-0.1269746
1	0x3c1da331	0.009621427
2	0xbc00425d	-0.007828322
3	0x3e4f934d	0.20271035
4	0xbd1e9429	-0.038715515
5	0xbe0f2ff7	-0.13983141
6	0x3d62bb52	0.055354424
7	0x3e25c914	0.16189986
8	0x3e355656	0.17708716
9	0xbd2e69af	-0.042581256
10	0xbe82d1d4	-0.2555071
11	0x3d09e077	0.033661332
12	0xbdb5bec9	-0.0887428
13	0x3e9558ca	0.29169303
14	0xbdd26ad4	-0.10274282
15	0x3d2c0c66	0.04200401
16	0xbe23826c	-0.15967721
17	0x3bc90edb	0.006135804
18	0xbda041a7	-0.07825022
19	0xbe323ac8	-0.17405236
20	0xbec29ef6	-0.38011903
21	0xbc2c8fc7	-0.010532326
22	0x3dff3b61	0.124624975
23	0x3e03512f	0.12823938
24	0x3ec9e9bf	0.39436147
25	0xbdd9c536	-0.10633318
26	0x3c4c82e3	0.012482378
27	0xbdbf8f81	-0.09353543
28	0xbc41768e	-0.011808051
29	0x3dea99d8	0.114551246
30	0xbcb63499	-0.022241877
31	0xbd1cd524	-0.038289204
32	0x3d6881cf	0.05676442
33	0xbd92f8a9	-0.071763344
34	0xbc9d74f7	-0.019220812
35	0x3e0be70e	0.13662359
36	0x3e26a743	0.16274743
37	0xbd4b71fe	-0.04966926
38	0x3d68c8f8	0.056832284
39	0xbdce3271	-0.10068215
40	0x3e6afeed	0.22948809
41	0xbe57b190	-0.21063828
42	0xbdd0f165	-0.10202292
43	0xbd4f5d63	-0.05062617
44	0xbda7e853	-0.08198609
45	0xbcc365f1	-0.02385232
46	0xbe716060	-0.2357192
47	0x3de308c0	0.11085653
48	0xbd66046c	-0.05615656
49	0x3de7091b	0.112810336
50	0x3e1e8b31	0.15482785
51	0xbdb3bffb	-0.08776852
52	0x3d9dc082	0.077027336
53	0x3d0816a0	0.033224702
54	0xbd382a73	-0.044962358
55	0x3e29f6aa	0.16598001
56	0xbec91dd5	-0.39280573
57	0x3c3850eb	0.011249761
58	0xbdb9be30	-0.090694785
59	0x3de15131	0.11001814
60	0xbeb1e5f5	-0.34745756
61	0x3e63815f	0.2221732
62	0xbdc7e233	-0.09759941
63	0x3e28013a	0.16406718
64	0xbdb3ce4d	-0.08779583
65	0x3e17ae64	0.14812618
66	0x3dccfaeb	0.10008796
67	0xbcbf1c41	-0.023328902
68	0x3d7b058a	0.06128458
69	0xbe025f82	-0.12731746
70	0xbd894672	-0.067028895
71	0x3df6aaa3	0.12044265
72	0xbeb5e7e0	-0.3552847
73	0x3d9a9c8c	0.0754939
74	0xbdb88aa2	-0.09010817
75	0x3d94ac54	0.072594315
76	0xbd852244	-0.06500676
77	0xbe3dedbc	-0.1854772
78	0xbdb41985	-0.0879393
79	0xbe373fe9	-0.17895474
80	0xbda12641	-0.078686245
81	0x3d0425f7	0.03226277
82	0x3c86e75f	0.016467748
83	0xbdd3597a	-0.10319801
84	0xbe2f407a	-0.1711444
85	0x3d8328de	0.06404279
86	0x3d556684	0.05209972
87	0xbdadd8c2	-0.08488609
88	0x3c4722b7	0.012154273
89	0x3e1f32d8	0.15546739
90	0x3d7fe282	0.062471874
91	0x3e1573d0	0.1459496
92	0x3e15a316	0.14612994
93	0x3e018226	0.12647304
94	0xbc8700b5	-0.01647983
95	0x3e3eab11	0.18619944
96	0xbe07556c	-0.1321618
97	0xbd6eef98	-0.058333963
98	0x3d47b23c	0.048753962
99	0x3e38929d	0.18024679
100	0x3dbaa8fb	0.09114262
101	0xbe6aaf86	-0.2291852
102	0x3df40519	0.11915035
103	0x3ccccd1e	0.025000151
104	0x3e708edf	0.23492001
105	0xbd32e764	-0.043677703
106	0xbd634e07	-0.055494335
107	0x3d9fcef3	0.07803144
108	0x3e37cb21	0.17948581
109	0xbcb339f0	-0.021878213
110	0x3d79db5a	0.061000206
111	0x3b5f4e4d	0.003407377
112	0xbe229742	-0.15878013
113	0x3d7eb506	0.062184356
114	0xbda671fb	-0.08127209
115	0xbe5d8c34	-0.21635514
116	0x3d9ec412	0.07752241
117	0xbe27b628	-0.16378081
118	0xbdb887ed	-0.09010301
119	0xbdc54d17	-0.09633844
120	0xbe80bbe8	-0.2514336
121	0x3d1f024c	0.03882055
122	0x3d115577	0.035481896
123	0x3e169958	0.14706933
124	0xbe3ea917	-0.1861919
125	0x3e498df3	0.19683056
126	0x3c9500e2	0.018188898
127	0xbb9790d7	-0.0046254206
128	0xbd0df142	-0.03465391
129	0x3df1fb03	0.11815455
130	0xbe12f2fb	-0.14350502
131	0x3e13594b	0.14389531
132	0xbde480a2	-0.11157347
133	0x3d2eecda	0.042706348
134	0xbe0e68a1	-0.139071
135	0x3d63be83	0.055601608
136	0x3c173849	0.009229728
137	0x3d643a85	0.05571987
138	0xbd42ae10	-0.04752928
139	0xbd61e99a	-0.05515442
140	0xbdc8d201	-0.0980568
141	0xbc8e687d	-0.017383808
142	0x3ca47d72	0.020079348
143	0xbe2a1b06	-0.16611871
144	0x3e07c3ee	0.13258335
145	0xbc3548cc	-0.011064719
146	0x3c784409	0.01515294
147	0x3e0fd5c3	0.14046387
148	0x3dd2d002	0.102935806
149	0x3c54d181	0.012989403
150	0xbbd4d206	-0.0064947633
151	0x3b82d093	0.003992149
152	0x3de2e235	0.11078302
153	0x3d99e166	0.075136945
154	0xbcd5e6a1	-0.026110949
155	0x3e3f6d95	0.18694146
156	0xbe199423	-0.14997916
157	0x3cbba51b	0.022905877
158	0xbd05dba8	-0.032680184
159	0x3dc6fd07	0.0971623
160	0xbe598242	-0.21241096
161	0x3d13cc21	0.036083344
162	0x3cf6cadc	0.030126028
163	0x3d78b683	0.06072093
164	0xbde75e83	-0.112973236
165	0xbbd1669b	-0.0063904054
166	0x3d6ef78b	0.058341544
167	0x3debe55f	0.115183584
168	0x3da911d3	0.08255353
169	0xbdcf5935	-0.10124437
170	0xbdaf1bc4	-0.08550218
171	0x3d32aa0a	0.043619193
172	0x3cb45e6f	0.022017686
173	0x3b6ad1de	0.0035830657
174	0xbd8ee2bf	-0.06976842
175	0xbb014ac8	-0.001972841
176	0xbde84d99	-0.113429256
177	0x3d444b6e	0.047923498
178	0xbc9fc0d4	-0.019501127
179	0x3d89a486	0.067208335
180	0x3db69a56	0.08916156
181	0x3d4cf1c9	0.05003527
182	0x3d430b2f	0.047618087
183	0x3d329da6	0.043607377
184	0xbd6f02e9	-0.058352385
185	0x3c1a0ab8	0.00940197
186	0x3cd4a503	0.02595759
187	0xbe38aeb3	-0.18035392
188	0xbc9e8b71	-0.0193536
189	0xbcc0c79c	-0.023532681
190	0xbe31206a	-0.17297521
191	0xbe372e90	-0.17888856
192	0xbe601fc6	-0.2188712
193	0xbdbcf05a	-0.09225531
194	0x3c27ffa0	0.010253817
195	0xbdcdf6a2	-0.10056807
196	0xbd7ebce1	-0.062191848
197	0xbec56a0c	-0.3855747
198	0xbdea21fd	-0.11432264
199	0x3d6a7b77	0.05724665
200	0xbdbaa2b3	-0.09113064
201	0xbe2d8238	-0.16944206
202	0x3d145e56	0.03622278
203	0xbe365c5c	-0.1780867
204	0x3af1ba31	0.001844233
205	0xbdcf2ce9	-0.10115988
206	0x3d76e688	0.060278445
207	0xbda02631	-0.078197844
208	0xbd8e6946	-0.06953673
209	0x3d77bbdc	0.06048189
210	0xbdb2ab09	-0.087240286
211	0x3c3e3200	0.011608601
212	0x3e05b350	0.13056684
213	0xbd0d4329	-0.034487877
214	0x3ba70d6f	0.005098037
215	0xbdfd0ec7	-0.12356334
216	0x3e0136c5	0.12618549
217	0xbe3fe702	-0.18740466
218	0xbe368edc	-0.17827934
219	0x3e432cdc	0.19060081
220	0x3dec64c7	0.11542659
221	0x3d6f69cb	0.0584505
222	0xbe80c0ed	-0.2514719
223	0x3d3bede7	0.04588118
224	0x3ca038bd	0.019558305
225	0xbd8aba44	-0.067738086
226	0x3d3f8492	0.04675729
227	0xbde6a565	-0.11262015
228	0x3c644335	0.013932039
229	0xbe9ec248	-0.310076
230	0x3bd43b35	0.0064767846
231	0x3cc0bb32	0.023526762
232	0x3e6bb4e8	0.23018229
233	0xbccf6f2b	-0.025321564
234	0xbe914423	-0.28372297
235	0xbe30cb0c	-0.17264956
236	0x3d9dd309	0.077062674
237	0xbcff4a12	-0.03116325
238	0xbd417060	-0.04722631
239	0xbe54e59e	-0.20790717
240	0xbdd59788	-0.10429293
241	0xbe754efb	-0.2395591
242	0x3d3c27cd	0.045936394
243	0xbd9bba2a	-0.07603867
244	0x3def3d20	0.116815805
245	0xbe0e022a	-0.13868013
246	0x3c92b7c2	0.017909888
247	0xbe1a5af1	-0.15073754
248	0xbea14fb6	-0.31506127
249	0x3e498c85	0.1968251
250	0xbe73dd66	-0.23814926
251	0x3e083033	0.13299637
252	0xbdde93c8	-0.10868031
253	0xbe0d134f	-0.13776897
254	0xbda41d41	-0.08013392
255	0xbe3383fe	-0.1753082

arr_7 f4 [256]
0	0xbe9c7484	-0.30557644
1	0xbe154a6c	-0.14579171
2	0xbdc57877	-0.096421175
3	0xbe556498	-0.20839155
4	0xbe934b93	-0.28768596
5	0x3c1e0db0	0.009646818
6	0xbe57910f	-0.21051429
7	0xbe3eaabe	-0.1861982
8	0xbea0c49a	-0.31399995
9	0xbd62ff68	-0.055419356
10	0xbe3ed88f	-0.18637298
11	0xbb16d16b	-0.0023013006
12	0xbe3be4c9	-0.18348993
13	0x3d5aeee8	0.053450495
14	0xbdb845d4	-0.08997694
15	0xbdc83994	-0.09776607
16	0x3be80704	0.0070809145
17	0xbecdb005	-0.40173355
18	0xbc15f59d	-0.009152797
19	0x3dace151	0.08441413
20	0xbe90cd10	-0.2828145
21	0xbdcf96bd	-0.10136173
22	0x3e0abe1a	0.1354908
23	0x3da3a096	0.07989614
24	0xbd9134d6	-0.07090156
25	0xbd537da6	-0.0516335
26	0xbd94f42d	-0.07273135
27	0xbd2283e4	-0.039676562
28	0xbddba640	-0.10725069
29	0xbe014fbf	-0.12628077
30	0xbde71a0d	-0.11284266
31	0x3e872731	0.26397088
32	0xbe03d243	-0.12873177
33	0x3dae0128	0.08496314
34	0xbe4fe6b1	-0.20302846
35	0xbe70e55e	-0.23524997
36	0xbe242a1c	-0.16031688
37	0xbea834fe	-0.3285293
38	0x3e607552	0.21919754
39	0xbd336098	-0.04379329
40	0xbe30c8ab	-0.17264049
41	0xbe983149	-0.29725102
42	0xbede5f4a	-0.43432075
43	0xbd0ae197	-0.033906545
44	0xbea0e3b6	-0.3142373
45	0x3a3e8a89	0.0007268568
46	0xbeba2f83	-0.36364374
47	0xbe7762b8	-0.24158752
48	0x3dc168e2	0.09443833
49	0xbe0b58d8	-0.1360811
50	0xbe1e708c	-0.1547262
51	0xbb9921af	-0.004673205
52	0xbdee31dc	-0.11630604
53	0xbe2067b2	-0.15664557
54	0x3cd4e3e0	0.025987566
55	0xbdb73a0f	-0.08946621
56	0xbe59b2d4	-0.21259624
57	0x3d1e7698	0.03868732
58	0xba99d896	-0.0011737521
59	0xbd1b3d0c	-0.037900016
60	0xbe01249f	-0.12611626
61	0xbe3bdc34	-0.1834572
62	0xbc899100	-0.016792774
63	0xbe6d447d	-0.23170657
64	0x3f9d321b	1.2280916
65	0x3e8ad14f	0.27112815
66	0x3f29dbda	0.6635109
67	0x3f2f4d4d	0.68477327
68	0x3e82d98f	0.2555661
69	0x3f9ededf	1.2411765
70	0x3f795590	0.97396183
71	0x3f210fd2	0.62914765
72	0x3f993e70	1.197218
73	0x3f7d40ba	0.9892689
74	0x3ed6be26	0.41941947
75	0x3f5567e5	0.83361655
76	0x3f7a00f1	0.97657686
77	0x3f79090d	0.97279435
78	0x3f80a0ef	1.0049113
79	0x3f873de9	1.0565768
80	0x3f673be2	0.9032575
81	0x3def58fb	0.116868936
82	0x3e5caa35	0.21549304
83	0x3f4512e8	0.76981974
84	0x3f81f7b8	1.0153723
85	0x3fa11af4	1.258635
86	0x3ed7336c	0.4203142
87	0x3f8cd0ff	1.100128
88	0x3e9e23e8	0.3088677
89	0x3e9d5cc8	0.3073485
90	0x3f2dd08d	0.6789635
91	0x3f7c635b	0.98589104
92	0x3f23a02d	0.63916284
93	0x3f8a9c1f	1.0828894
94	0x3f77a5a3	0.96737117
95	0x3e7c84e2	0.24660066
96	0x3f8a99aa	1.0828145
97	0x3f30fab8	0.69132566
98	0x3f9ff096	1.2495296
99	0x3f6b0468	0.918036
100	0x3f97388e	1.1814134
101	0x3f52b7b5	0.82311565
102	0x3f4b8244	0.79495645
103	0xbc358b0a	-0.011080513
104	0x3f1bdb92	0.6088191
105	0x3ee76690	0.45195436
106	0x3f6faee7	0.93626255
107	0x3f641b2b	0.89103955
108	0x3e756c7c	0.23967165
109	0x3f77082e	0.96496856
110	0x3e3ed274	0.18634969
111	0x3fa99a46	1.3250206
112	0x3f5d3548	0.86409426
113	0x3f10abe1	0.56512266
114	0x3f96f6cb	1.1794065
115	0x3f47e3f3	0.780822
116	0x3f6b9200	0.92019653
117	0x3f804181	1.001999
118	0x3effdb97	0.4997222
119	0x3f836e24	1.0267987
120	0x3f4b7986	0.79482305
121	0x3f4e9380	0.8069382
122	0x3ec110a4	0.37708008
123	0x3d94d832	0.072677985
124	0x3f5dcd80	0.86641693
125	0x3f8d933e	1.106056
126	0x3f891295	1.0708796
127	0x3f955a8f	1.1668261
128	0xbda84c06	-0.08217625
129	0x3cc061b8	0.023484096
130	0x3dcdccf3	0.100488566
131	0x3e893d94	0.26804793
132	0xbdafd988	-0.08586413
133	0x3ea4c726	0.32183188
134	0xbe56f3a9	-0.20991386
135	0x3d6ec70f	0.058295306
136	0xbe02e444	-0.12782389
137	0xbd325eaf	-0.04354733
138	0x3d953912	0.07286276
139	0x3d1bb5f0	0.038015306
140	0x3d84a779	0.064772554
141	0x3ddd90d4	0.108186394
142	0x3ca09e9f	0.019606886
143	0xbda89354	-0.082312256
144	0x3d9fc3ef	0.07801043
145	0xbb84f527	-0.0040575447
146	0xbce6c353	-0.02816931
147	0x3b97d137	0.0046330946
148	0xbd9cc1c7	-0.076541476
149	0xbde57633	-0.11204185
150	0xbeb6c099	-0.35693815
151	0x3ddb8ca1	0.10720182
152	0x3ea71d87	0.32639715
153	0x3baa6241	0.005199701
154	0x3db9450c	0.09046373
155	0xbcac2fd8	-0.021018907
156	0x3a166c95	0.0005738226
157	0xbdd58afb	-0.10426899
158	0x3e9bc7e3	0.3042594
159	0x3ec30157	0.3808696
160	0xbe3c9807	-0.18417369
161	0xbe89196a	-0.26777202
162	0xbddc2f65	-0.10751227
163	0x3dffef0e	0.12496768
164	0xbc288f14	-0.010288019
165	0x3ce437eb	0.027858695
166	0x3e20131a	0.15632287
167	0xbe193c4b	-0.14964406
168	0x3c350f90	0.011051074
169	0x3def2b84	0.11678222
170	0x3e1246b8	0.1428479
171	0xbe470cae	-0.1943843
172	0xbc8d6fa5	-0.01726515
173	0x3d9ab5a1	0.07554174
174	0x3d12a884	0.03580524
175	0xbe34c686	-0.17653856
176	0x3e6b9a22	0.23008016
177	0x3e87e025	0.26538196
178	0x3de40196	0.11133115
179	0xbd5c39a1	-0.053765897
180	0x3d75f0bc	0.060044035
181	0x3c11c745	0.008897607
182	0x3d629934	0.055321887
183	0x3dd89114	0.105745465
184	0x3d3d0e72	0.046156354
185	0x3e4cdd30	0.20006251
186	0x3d53d437	0.051716056
187	0xbe6b0024	-0.22949272
188	0x3d0e8456	0.034794174
189	0xbbf3e117	-0.0074426043
190	0x3e0b17ae	0.13583252
191	0xbe7806d7	-0.24221359
192	0xbd0c3d70	-0.03423828
193	0xbe82a2f7	-0.25514957
194	0xbc391ce4	-0.011298392
195	0xbc4abbca	-0.012373874
196	0xbede3e09	-0.43406704
197	0x3dee1a59	0.11626119
198	0x3d41da93	0.04732759
199	0xbefd1366	-0.49428862
200	0x3cae7c82	0.021299604
201	0x3dd916c9	0.10600049
202	0xbea2aab2	-0.31770855
203	0x3eb2bd72	0.3491016
204	0x3d22dac6	0.03975942
205	0xbada213c	-0.0016641985
206	0x3e6f21f2	0.23352793
207	0x3e41e398	0.18934476
208	0x3e300903	0.17190938
209	0xbf1755a2	-0.5911504
210	0x3e1099d3	0.1412118
211	0xbc5968d9	-0.013269627
212	0x3b981e5e	0.004642292
213	0x3e907016	0.28210515
214	0x3b662249	0.003511565
215	0xbca844d3	-0.02054063
216	0x3deeb32b	0.11655267
217	0x3dee5a6c	0.1163834
218	0xbe2bc735	-0.1677521
219	0xbdfe5c5b	-0.12419959
220	0xbcccea24	-0.02501399
221	0x3cf5f8c2	0.030025844
222	0x3e3cb792	0.18429402
223	0x3e27e433	0.16395645
224	0x3d1c4355	0.03815015
225	0x3d9d2282	0.076725975
226	0x3df4d33f	0.119543545
227	0x3dc55fa9	0.09637386
228	0x3c940050	0.018066555
229	0x3dc3e708	0.0956555
230	0x3e82f558	0.25577807
231	0xbd407a1e	-0.04699146
232	0xbdc4638a	-0.09589298
233	0xbea99942	-0.3312474
234	0xbe1e26d9	-0.15444507
235	0x3ddf21f4	0.10895148
236	0xbea28710	-0.3174367
237	0xbe1e9ad8	-0.15488756
238	0xbf082d5f	-0.5319423
239	0xbe875a1f	-0.26435944
240	0x3e4ea953	0.2018178
241	0x3e7abc36	0.2448586
242	0xbc29a431	-0.010354088
243	0x3d7b8105	0.06140234
244	0x3de72dbb	0.11288019
245	0x3e4b53b7	0.19856153
246	0x3d2052ba	0.039141394
247	0x3dc8e4b6	0.09809248
248	0xbe3163b6	-0.17323193
249	0xbe2b7134	-0.16742402
250	0x3e4284fb	0.1899604
251	0xbe0ab4b4	-0.13545495
252	0x3da56107	0.08075147
253	0x3def9070	0.11697471
254	0x3e6ca9c1	0.23111631
255	0x3e9bf300	0.30458832

arr_8 f4 [64]
0	0x3f339103	0.70143145
1	0x3f676211	0.9038401
2	0x3f3c2b56	0.73503625
3	0x3f774dce	0.96603096
4	0x3f730f00	0.94944763
5	0x3f3ee2d1	0.74564844
6	0x3f6674c1	0.900219
7	0x3f4822b3	0.78177947
8	0x3f6985e7	0.91219944
9	0x3f31125d	0.69168645
10	0x3f4f3ae2	0.80949223
11	0x3f671bbc	0.90276694
12	0x3f5987df	0.8497295
13	0x3f4c5fbd	0.79833585
14	0x3f361bb4	0.7113602
15	0x3f551d05	0.83247405
16	0x3f64c7da	0.8936745
17	0x3f51c06c	0.8193424
18	0x3f6d421e	0.9267901
19	0x3f66672c	0.9000118
20	0x3f5cb2f4	0.8621056
21	0x3f46bdfe	0.77633655
22	0x3f670335	0.9023927
23	0x3f626866	0.8844055
24	0x3f83f091	1.030779
25	0x3f76fd4b	0.96480244
26	0x3f5b745c	0.85724425
27	0x3f389deb	0.72115964
28	0x3f4abe56	0.7919668
29	0x3f3d05d7	0.73837036
30	0x3f4ddd62	0.8041593
31	0x3f8fce95	1.1234919
32	0x3f6ad0df	0.9172496
33	0x3f6e54e8	0.93098307
34	0x3f459c54	0.7719166
35	0x3f7a8093	0.9785244
36	0x3f87f2bc	1.0620952
37	0x3f5624a1	0.8364964
38	0x3f619ff9	0.88134724
39	0x3f66f9d8	0.9022498
40	0x3f5a5a41	0.85293967
41	0x3f55aaf7	0.83463997
42	0x3f4445b7	0.76668876
43	0x3f7313cb	0.94952077
44	0x3f5b7276	0.8572153
45	0x3f49bb58	0.7880149
46	0x3f434d9b	0.7629029
47	0x3f705bae	0.9388989
48	0x3f6fde2a	0.9369837
49	0x3f8a63fa	1.081176
50	0x3f6822b1	0.90677935
51	0x3f8468a9	1.034444
52	0x3f4f94da	0.81086504
53	0x3f5b267f	0.85605615
54	0x3f7e1301	0.9924775
55	0x3f75f5e9	0.96078354
56	0x3f460f22	0.7736684
57	0x3f4b2bcb	0.793637
58	0x3f6c2456	0.92242944
59	0x3f6ea698	0.9322295
60	0x3f7c0d0e	0.9845742
61	0x3f356e92	0.7087184
62	0x3f3ca150	0.73683643
63	0x3f8c61e9	1.096738

arr_9 f4 [64]
0	0xbd8b7ea0	-0.06811261
1	0xbe92eee2	-0.28697878
2	0x3d78e341	0.0607636
3	0x3de05e67	0.10955506
4	0x3f2191e9	0.63113266
5	0x3e616b9b	0.22013704
6	0x3e07820a	0.132332
7	0x3ee03ac3	0.43794832
8	0x3e02f4bf	0.12788676
9	0x3db4cf1f	0.08828568
10	0x3e9b7088	0.30359292
11	0xbe2bd01e	-0.16778609
12	0x3d37a899	0.04483852
13	0x3def66e7	0.11689549
14	0xbe44e155	-0.19226582
15	0x3d19c844	0.037544504
16	0xbe061555	-0.13094075
17	0xbec62737	-0.38701794
18	0xbe2c24f0	-0.16810966
19	0x3d836faf	0.06417786
20	0xbeb2d44a	-0.3492759
21	0x3dd330a1	0.103120096
22	0xbd172cf9	-0.036908124
23	0x3da32435	0.0796589
24	0x3d2051e6	0.039140604
25	0xbc4b3942	-0.012403788
26	0x3e8e8e03	0.2784272
27	0xbe933324	-0.28749955
28	0x3e51b0ae	0.20477554
29	0xbed2df1c	-0.41185844
30	0x3df39dad	0.11895309
31	0xbddf1ce6	-0.10894184
32	0x3cf0bbd1	0.029386433
33	0xbdbaa233	-0.09112968
34	0xbe19c87c	-0.15017885
35	0x3d8ccbe8	0.068748295
36	0x3d88ab9a	0.066733554
37	0xbdf3fef3	-0.11913862
38	0xbe2cddfa	-0.16881552
39	0xbec89651	-0.39177182
40	0x3dad4b0c	0.0846158
41	0xbefed85c	-0.49774444
42	0x3ece4db9	0.40293673
43	0xbd851341	-0.06497813
44	0xbe88a56c	-0.26688707
45	0xbead2f01	-0.33824924
46	0x3f06aa23	0.5260336
47	0xbdc347b8	-0.09535164
48	0x3e837f80	0.25683212
49	0x3e5f0500	0.21779251
50	0xbd9dddde	-0.077083334
51	0xbd097b96	-0.033565126
52	0xbea0cdef	-0.31407115
53	0xbd6ca36e	-0.057773046
54	0x3dc6ad19	0.097009845
55	0xbd8a3a6a	-0.06749423
56	0x3ec4d303	0.3844224
57	0xbe231db9	-0.15929307
58	0xbe0ccd53	-0.137502
59	0x3e292d2b	0.16521136
60	0x3d4b23de	0.049594752
61	0xbdbd552a	-0.092447594
62	0xbe42af49	-0.19012178
63	0xbdec1e9a	-0.11529274

arr_10 f4 [64]
0	0xbc548bd8	-0.0129727945
1	0xbd22cb04	-0.039744392
2	0x3c4bab96	0.012431046
3	0x3db72fb0	0.089446425
4	0x3dbddff7	0.092712335
5	0x3e3a4855	0.18191655
6	0x3d9acd96	0.07558744
7	0x3ca1f4e6	0.019770097
8	0xbd8d0d59	-0.068873115
9	0x3b886bfb	0.004163263
10	0x3d776d73	0.060407113
11	0x3d58c2e9	0.052920256
12	0x3e0adc34	0.13560563
13	0xbc7e9673	-0.0155388
14	0x3a5dd049	0.0008461518
15	0x3dfdd422	0.12393977
16	0xbcad5103	-0.021156793
17	0x3cef3f21	0.029204907
18	0xbdd2bfc3	-0.10290482
19	0x3dd6de86	0.10491662
20	0xbda001d0	-0.07812846
21	0x3dd9c553	0.1063334
22	0xbddef3be	-0.10886334
23	0x3af1313d	0.0018401515
24	0x3d4da97b	0.050210457
25	0xbcb93bbd	-0.022611493
26	0x3cb8daef	0.022565333
27	0xbbf953f6	-0.007608886
28	0xbc86f6de	-0.016475137
29	0xbe6c975e	-0.23104617
30	0x3e539328	0.20661604
31	0x3dc01fe2	0.09381081
32	0x398dced5	0.00027047718
33	0xbe28f5a2	-0.16499951
34	0xbd1410c4	-0.0361488
35	0xbdb82f25	-0.08993367
36	0x3cfb7d16	0.030699294
37	0x3d8e4961	0.0694759
38	0xbd1ddf4c	-0.03854303
39	0xbd92407d	-0.071412064
40	0x3e0dc2ae	0.13843796
41	0xbd19b1b0	-0.03752297
42	0x3cf5fa38	0.03002654
43	0xbdb8805a	-0.09008856
44	0x3c9cc46b	0.019136628
45	0xbcdb93c1	-0.026803853
46	0x3cd870f2	0.026421044
47	0xbdb804ef	-0.08985316
48	0x3dd2496f	0.102679126
49	0x3daaf8da	0.08348246
50	0x3d289477	0.041157212
51	0xbccf587e	-0.025310751
52	0xbe8f7dd7	-0.28025696
53	0x3d3f2d21	0.046673898
54	0x3e0fe9c2	0.14054015
55	0x3da1fc38	0.07909435
56	0x3d7923ef	0.060825285
57	0x3e220e55	0.1582578
58	0xbdedcf2a	-0.11611779
59	0x3be69e8e	0.007037944
60	0x3d5da0fe	0.054108612
61	0x3c34ee7b	0.011043186
62	0x3deecb25	0.116598405
63	0xbe0f95c3	-0.14021973

arr_11 f4 [64]
0	0x3d29fe91	0.04150254
1	0x3d192256	0.03738626
2	0x3d5758ed	0.05257504
3	0x3d472350	0.04861766
4	0x3d3ee2b9	0.04660294
5	0x3d5cb0e2	0.053879626
6	0x3defec40	0.11714983
7	0x3cb9a44a	0.022661347
8	0x3da5e31a	0.08099957
9	0x3d84c99a	0.06483765
10	0x3cd95268	0.026528552
11	0x3df6d978	0.120531976
12	0x3dc7cb24	0.09755543
13	0x3d3f8386	0.04675629
14	0x3d6a5981	0.057214264
15	0x3e3e78d5	0.18600781
16	0x3df389f2	0.11891545
17	0x3b7e1a4e	0.0038773003
18	0x3d3f90fb	0.046769124
19	0x3da9aaea	0.082845524
20	0x3d89f40b	0.067360006
21	0x3e04b9b4	0.12961465
22	0x3cae95df	0.021311698
23	0x3e384638	0.17995536
24	0x3c8cba75	0.017178753
25	0x3d2bacc9	0.041912828
26	0x3d18da58	0.037317604
27	0x3dae85e6	0.08521633
28	0x3d57d9c1	0.0526979
29	0x3e0577ad	0.13033934
30	0x3d147129	0.03624073
31	0x3cda7c42	0.026670579
32	0x3df625a8	0.12018901
33	0x3d8f1e43	0.06988194
34	0x3d318c11	0.04334647
35	0x3dad4270	0.084599376
36	0x3ddb739d	0.10715411
37	0x3d4af9b2	0.049554534
38	0x3dd3dc0e	0.103447065
39	0x3c381959	0.011236512
40	0x3dc3e7e6	0.095657155
41	0x3cd4f173	0.025994038
42	0x3c8c8837	0.017154796
43	0x3dc1ff3e	0.09472512
44	0x3c87107d	0.016487354
45	0x3d272fc6	0.040817045
46	0x3c513f3c	0.012771424
47	0x3d17757a	0.03697727
48	0x3d974274	0.07385722
49	0x3cfcdbce	0.03086653
50	0x3dd50cea	0.10402854
51	0x3dd97b4e	0.10619222
52	0x3e7c2392	0.24622944
53	0x3d849128	0.06472999
54	0x3d8fcef0	0.07021892
55	0x3da915ef	0.082561366
56	0x3d403313	0.04692371
57	0x3d9461a2	0.072451845
58	0x3d9108c0	0.07081747
59	0x3d117a63	0.035517108
60	0x3dddd348	0.10831314
61	0x3da73cca	0.081658915
62	0x3dc8be21	0.09801889
63	0x3ddeb482	0.10874273

arr_12 f4 [64, 128]
0	0x3d815c61	0.06316448
1	0xbdb8fa05	-0.090320624
2	0x3d95dc28	0.07317382
3	0xbdd11456	-0.10208957
4	0xbddf35e0	-0.10898948
5	0x3d9e3f3b	0.07726904
6	0x3e0f5b90	0.13999772
7	0xbc933058	-0.017967388
8	0xbd49a481	-0.04922915
9	0x3d5ca1fe	0.053865425
10	0xbd0da47e	-0.0345807
11	0xbba8c431	-0.005150341
12	0xbb2f2c6e	-0.0026729363
13	0x3dddbb4a	0.10826738
14	0xbd940753	-0.072279595
15	0x3c0070f8	0.007839434
16	0xbd891331	-0.066931136
17	0x3de54c27	0.111961655
18	0x3e28de1b	0.16490977
19	0x3d07a4c2	0.03311611
20	0x3d91be45	0.07116369
21	0xbd00659f	-0.031346913
22	0x3c038893	0.008028167
23	0xbd52542f	-0.051349815
24	0x3c9d3111	0.019188436
25	0x3d7715cd	0.060323525
26	0xbe0e0580	-0.13869286
27	0x3cff450a	0.03116085
28	0x3e13fba3	0.1445146
29	0xbe2b9edc	-0.16759819
30	0x3cb34f93	0.02188853
31	0x3ba154a1	0.0049234186
32	0xbe2a3f41	-0.16625692
33	0x3e11a5c1	0.14223386
34	0x3da62fd0	0.08114588
35	0x3c2e079a	0.01062193
36	0x3d94a01e	0.072571024
37	0xbe1a5b93	-0.15073995
38	0x3d450fc4	0.04811074
39	0x3d51dcb6	0.051235877
40	0x3d9feb5a	0.078085616
41	0x3d84efca	0.06491049
42	0xbe2e0cc2	-0.16997054
43	0x3d8330c0	0.06405783
44	0xbca7031d	-0.020387227
45	0xbc952ebb	-0.01821076
46	0xbd6abea2	-0.057310708
47	0x3dec8797	0.11549299
48	0xbe27defe	-0.16393659
49	0xbe469300	-0.19392014
50	0xbcde28d7	-0.027119083
51	0x3db2af01	0.087247856
52	0x3d9f32f8	0.077733934
53	0x3d3a68b7	0.04551002
54	0x3e267ba1	0.16258098
55	0xbd63b669	-0.05559388
56	0x3e26915c	0.16266388
57	0x3a83476b	0.0010015791
58	0x3e2e8dc6	0.1704627
59	0x3dfd15d7	0.12357681
60	0xbd8d7d85	-0.069087066
61	0xbcfc0671	-0.03076479
62	0xbd27424f	-0.04083472
63	0xbe2aa86b	-0.16665809
64	0xbc0461c1	-0.008079947
65	0xbdd45954	-0.103686005
66	0x3d629c05	0.055324573
67	0xbe319914	-0.17343551
68	0x3d43b2b2	0.04777784
69	0xbd9009c9	-0.07033116
70	0xbdc70fb4	-0.09719792
71	0x3db09cb9	0.086236425
72	0x3d732d80	0.059369564
73	0xbc8646b2	-0.016391132
74	0x3d63fd37	0.055661406
75	0x3d1bd12a	0.03804127
76	0x3d1728a9	0.03690401
77	0xbdce9620	-0.10087228
78	0xbc072ece	-0.008250905
79	0xbd208603	-0.039190304
80	0x3ac49636	0.001499838
81	0xbd9331b9	-0.07187218
82	0xbc75ed36	-0.015010169
83	0xbd211bca	-0.039333142
84	0xbdccbd24	-0.09997013
85	0x3d9fc52b	0.07801279
86	0x3d1a85bb	0.03772519
87	0xbcd30402	-0.025758747
88	0x3d05aa84	0.03263332
89	0x3ddea56c	0.108713955
90	0x3dc6b807	0.09703069
91	0xbcae0187	-0.021240963
92	0xbcfb13df	-0.030649124
93	0xbd3c4d14	-0.045971945
94	0xbcb533d9	-0.02211945
95	0x3a7c9df4	0.0009636574
96	0xbe137966	-0.14401779
97	0xbca587bb	-0.020206323
98	0xbe5410f9	-0.207096
99	0x3e446d9f	0.19182442
100	0x3d8947c4	0.06703141
101	0xbc5f2f2e	-0.013622088
102	0xbcecb8b2	-0.028896663
103	0x3c8c4212	0.017121349
104	0x3bc964dc	0.0061460566
105	0xbe0f561a	-0.13997689
106	0x3e553cd5	0.20823987
107	0xbe20a75e	-0.15688846
108	0x3c8d5185	0.017250786
109	0x3cece5e8	0.028918222
110	0x3e25301f	0.16131638
111	0xbd3699c2	-0.04458023
112	0x3d078bf5	0.033092458
113	0xbd133b35	-0.035945136
114	0x3e37fddd	0.17967935
115	0x3de4d8a5	0.11174134
116	0xbdd493e3	-0.1037977
117	0x3e128af3	0.14310817
118	0xbb6d7c6c	-0.0036237491
119	0xbdd269f5	-0.10274116
120	0xbd584dd1	-0.052808587
121	0xbdc870b0	-0.097871184
122	0x3d9e9756	0.07743709
123	0xbae7823e	-0.0017662717
124	0x3d67db36	0.05660554
125	0x3d9e68ac	0.07734808
126	0x3e00acc8	0.12565911
127	0x3da7142d	0.08158145
128	0xbbde57c8	-0.0067853667
129	0x3da10669	0.07862551
130	0x3dec0343	0.115240596
131	0xbeb21167	-0.34778902
132	0xbd66a742	-0.056311853
133	0x3d873e64	0.06603697
134	0x3a57b948	0.0008229208
135	0x3da2b772	0.07945146
136	0x3cb52348	0.02211155
137	0xbbd43ee3	-0.0064772232
138	0xbcc16026	-0.023605417
139	0xbd1ff44e	-0.039051346
140	0xbddd1ddd	-0.107967116
141	0xbde08945	-0.10963682
142	0xbd3348c6	-0.043770574
143	0x3e5356de	0.20638606
144	0x3d287acf	0.041132744
145	0x3c1b6c2a	0.009486238
146	0xbb8acaec	-0.004235616
147	0x3c6a80d2	0.01431294
148	0xbdcc0c21	-0.09963251
149	0x3e00983d	0.12558074
150	0x3cec313d	0.028832072
151	0xbe42fd52	-0.19041947
152	0x3eb23184	0.34803402
153	0x3d0f482c	0.034980938
154	0x3c307f91	0.010772602
155	0xbc13b5db	-0.009015526
156	0x3da27493	0.07932391
157	0xbde637be	-0.11241101
158	0xbd08a8f7	-0.033364262
159	0x3d7b9c5d	0.061428417
160	0xbca2efba	-0.019889701
161	0xbda00a3a	-0.078144506
162	0xbe04cc5f	-0.12968586
163	0xbdc13e8a	-0.094357565
164	0x3e05a7af	0.13052247
165	0x3e0c413c	0.1369676
166	0xbdd7388c	-0.10508832
167	0xbe02b582	-0.12764552
168	0x3cd5c958	0.026096985
169	0xbb760930	-0.0037542097
170	0x3c6f95de	0.014623133
171	0xbdfe8a96	-0.12428777
172	0xbdd0ede4	-0.10201624
173	0x3d30dd8d	0.043180037
174	0xbd723e99	-0.05914173
175	0xbcb291bf	-0.021798013
176	0xbece6c0f	-0.40316817
177	0xbe372995	-0.17886956
178	0xbd059364	-0.032611266
179	0xbcd4d8ba	-0.02598225
180	0xbdd10549	-0.10206086
181	0x3cf36082	0.029709104
182	0xbc918376	-0.01776288
183	0xbd9e5c78	-0.07732481
184	0xbd38a063	-0.04507483
185	0xbdb241df	-0.0870397
186	0xbdcb8918	-0.09938258
187	0x3ba62e32	0.005071425
188	0xbe722a19	-0.23648871
189	0xbd9a14e1	-0.075235136
190	0x3d03cd7c	0.032178387
191	0xbdafda35	-0.085865416
192	0xbd576946	-0.05259063
193	0xbe1909d1	-0.14945151
194	0xbd12cc88	-0.035839587
195	0x3d53247f	0.051548477
196	0xbc84be2d	-0.016203964
197	0x3e109156	0.14117941
198	0xbe6b4acc	-0.22977751
199	0x3dfb3bc9	0.122672625
200	0x3d9dd82a	0.07707246
201	0xbda76773	-0.08174028
202	0xbcd6d70d	-0.026225591
203	0x3cb94807	0.022617353
204	0xbcd49d44	-0.025953896
205	0xbd87127e	-0.06595324
206	0x3e1b3d60	0.15160131
207	0xbd9bcb85	-0.07607178
208	0x3e2d153a	0.16902629
209	0xbd678244	-0.056520715
210	0xbab88d44	-0.0014080186
211	0xbca07954	-0.019589104
212	0x3e738c8f	0.23784088
213	0x3e12732e	0.1430175
214	0xbdc942bb	-0.09827181
215	0x3e6d8adc	0.23197502
216	0x3e9a33a3	0.3011752
217	0x3ca2f1c7	0.019890679
218	0x3da7d0ab	0.08194097
219	0x3dfc2136	0.12311022
220	0xbd175bfc	-0.036952958
221	0x3d39961d	0.045309175
222	0xbd81d17a	-0.063387826
223	0x3e01d8b1	0.12680317
224	0xbb0065d5	-0.0019591947
225	0x3d9cd516	0.076578304
226	0xbdd654a0	-0.1046536
227	0xbdd6ebb0	-0.104941726
228	0x3d39ecfb	0.045392018
229	0x3dfdef73	0.12399187
230	0xbe2b4d2a	-0.16728655
231	0x3d250935	0.040291984
232	0x3d46b382	0.048511036
233	0xbe1ce1a1	-0.15320446
234	0x3dedcdd0	0.11611521
235	0xbe7e32bd	-0.24824043
236	0xbdeb633b	-0.11493536
237	0x3e15511d	0.14581724
238	0xbd672949	-0.056435857
239	0x3e7e9689	0.24862112
240	0xbeacba2b	-0.33735785
241	0xbd93f171	-0.07223786
242	0xbca4eeac	-0.020133339
243	0x3d1b46da	0.037909366
244	0xbcec35b0	-0.028834194
245	0xbd1ea12d	-0.038727928
246	0x3e3486e7	0.17629586
247	0xbe2087af	-0.15676759
248	0x3e29eec1	0.16594984
249	0xbe88819e	-0.2666139
250	0x3cd0d191	0.025490554
251	0xbd74fac5	-0.059809465
252	0xbd8fa2c4	-0.07013467
253	0x3e28c0db	0.16479819
254	0x3c813711	0.015773328
255	0x3e7cd0fa	0.24689093
