Assignment_2B/checkpoints/saved_models/enhanced_cnn_lstm_20250516_140027/final_enhanced_cnn_lstm_20250516_140027_weights.npz (npz, 336602 bytes, 64 tensors)

arr_0 f4 [137, 32]
0	0x3ca33938	0.019924745
1	0x3dff6920	0.12471223
2	0x3d249b3d	0.04018711
3	0xba99c6ab	-0.0011732181
4	0x3d5ddcc5	0.05416562
5	0x3d2ed159	0.04268012
6	0xbc357525	-0.011075293
7	0x3c937bb3	0.01800332
8	0xbbfc00b3	-0.007690513
9	0xbce4ae80	-0.02791524
10	0x3dcfa792	0.101393834
11	0x3d9ab53a	0.075540975
12	0xbd1d6645	-0.03842761
13	0xbd218ac0	-0.039438963
14	0xbd5bacea	-0.0536317
15	0xbcefbb8d	-0.029264236
16	0xbb1d8ea9	-0.002404133
17	0xbdb30629	-0.08741409
18	0x3c028c1b	0.007967974
19	0x3c7dda9c	0.015494015
20	0xbdb8fa87	-0.09032159
21	0xbac24665	-0.0014822005
22	0x3d7ffec4	0.062498823
23	0xbd95cfc7	-0.07315021
24	0x3afec82c	0.0019438318
25	0xbc87cd40	-0.016577363
26	0xbd3a2dce	-0.04545384
27	0xbc369451	-0.01114376
28	0x3d044ee3	0.032301795
29	0x3da78b17	0.08180826
30	0x3d374139	0.044739936
31	0x3c1f86e7	0.009736753
32	0xbda61b33	-0.081106566
33	0x3d43d051	0.047806088
34	0x3e25352f	0.16133569
35	0xbd88a7ba	-0.06672616
36	0x3d0dfe8f	0.034666594
37	0xbd823bd9	-0.06359071
38	0xbc4ce2e4	-0.012505267
39	0xbdc05890	-0.09391892
40	0x3aed7a75	0.001811816
41	0xbcd82354	-0.026384033
42	0xbcf6708b	-0.030082962
43	0x3d911f32	0.07086028
44	0x3c589743	0.013219657
45	0xbd87e566	-0.06635551
46	0xbdcd15bc	-0.10013911
47	0xbc9f8f70	-0.019477576
48	0x3c040078	0.008056752
49	0xbbc88a90	-0.0061200336
50	0x3dcfdddd	0.10149739
51	0x3d2dc899	0.042427633
52	0xbd5ede0d	-0.054410983
53	0xbe06478e	-0.13113233
54	0x3d653b07	0.055964496
55	0xbd02ddd0	-0.031949818
56	0x3d83eb49	0.064413615
57	0x3d0db5b0	0.0345971
58	0xbd35845f	-0.044315692
59	0xbd09e062	-0.033661254
60	0xbc885fe7	-0.016647292
61	0xbce3502e	-0.027748194
62	0x3c7abe21	0.015304119
63	0xbde777d6	-0.11302154
64	0x3c8dd393	0.0173128
65	0x3cdbb263	0.02681846
66	0xbd01bcd7	-0.031674232
67	0xbe0c2609	-0.13686384
68	0xbd2f4a8a	-0.042795695
69	0x3d5f9335	0.054583747
70	0xbda2136c	-0.07913861
71	0x3dfe9b13	0.12431922
72	0x3bba9a5e	0.0056946715
73	0x3ca8cfc3	0.020606881
74	0x3de26cd8	0.110559165
75	0xba3e66c4	-0.0007263238
76	0x3bd4787d	0.00648409
77	0xbda73d33	-0.0816597
78	0xbd2bd881	-0.04195452
79	0x3d716402	0.058933266
80	0x3bfc1977	0.0076934653
81	0x3c3e9133	0.011631298
82	0xbde2a03d	-0.11065719
83	0xbd7812e7	-0.0605649
84	0xbd567855	-0.05236085
85	0x3bf421fb	0.00745034
86	0x3c596c60	0.0132704675
87	0x3d0baa86	0.03409817
88	0x3c6b8a17	0.014376185
89	0x3d91345f	0.07090067
90	0xbbc62eae	-0.006048045
91	0xbd429980	-0.04750967
92	0xbd1902db	-0.03735624
93	0xbae9626b	-0.001780582
94	0x3dbb4e64	0.09145811
95	0x3bc06b88	0.0058721937
96	0x3dbe2de1	0.092860945
97	0x3cbaa544	0.022783883
98	0xbca00e20	-0.019537985
99	0xbde6d66d	-0.11271367
100	0x3d7d4101	0.06182957
101	0x3db24496	0.08704488
102	0xbdef74c7	-0.116921954
103	0xbb9bd2a3	-0.0047553345
104	0x39fec791	0.00048595344
105	0x3d82753d	0.06370018
106	0x3e1615ba	0.14656726
107	0xbca97cfd	-0.020689482
108	0x3c994cb7	0.018713338
109	0xbe207f24	-0.156735
110	0xbcd21b85	-0.025647888
111	0x3e2c4c53	0.1682599
112	0x3ce37f4f	0.027770666
113	0x3d83d123	0.06436374
114	0xbdcd00b8	-0.10009903
115	0xbe75a612	-0.23989132
116	0x3d31c9ed	0.043405462
117	0x3cd78980	0.026310682
118	0xbccb0def	-0.024786917
119	0x3dd2e77d	0.10298059
120	0x3da4906f	0.08035361
121	0x3c067ad9	0.008208
122	0xbdc65890	-0.09684861
123	0x3d9d17b3	0.07670536
124	0xbcf0fb87	-0.029416813
125	0xbe0c99a4	-0.13730484
126	0x3dcd626a	0.100285366
127	0xbd4fcee2	-0.05073441
128	0x3b43329d	0.0029784807
129	0xbdbed3e7	-0.09317761
130	0xbc21bc62	-0.009871574
131	0xbe0ef6e3	-0.13961367
132	0x3ca76b59	0.02043693
133	0x3d532af0	0.05155462
134	0xbd8a64ff	-0.06757545
135	0x3dfd34a2	0.123635545
136	0xbd355c78	-0.04427764
137	0xbd55b3ad	-0.052173305
138	0x3e1e2d96	0.15447077
139	0x3cb83d7d	0.022490257
140	0x3dc357c1	0.09538222
141	0xbdd13d97	-0.102168255
142	0xbe1f1e41	-0.15538885
143	0x3dbc7c11	0.09203351
144	0xbdc804cb	-0.09766539
145	0x3d02b2e3	0.03190888
146	0xbe02d59e	-0.12776801
147	0xbe1ae0cd	-0.15124817
148	0x3cc6b6bb	0.024257055
149	0xbe2fc8cd	-0.17166443
150	0xbd0fc8e2	-0.035103686
151	0x3d8c7c44	0.06859639
152	0x3e28372f	0.16427301
153	0x3dd73f25	0.10510091
154	0xbdde14aa	-0.10843785
155	0x3d40294e	0.04691439
156	0xbc8986fb	-0.016787997
157	0xbc1e1359	-0.0096481675
158	0xbbdc68ed	-0.0067263753
159	0xbd839272	-0.064244166
160	0xbcfb3e5c	-0.030669384
161	0xbd23cb59	-0.03998885
162	0x3caa8a75	0.020817975
163	0xbe23b194	-0.1598571
164	0xbd3aa5da	-0.045568325
165	0xbd37e931	-0.044900123
166	0xbc8ae8b8	-0.016956672
167	0xbd67ed71	-0.056622926
168	0xbd73ad3e	-0.05949139
169	0x3c25b9ad	0.010115069
170	0xbd130842	-0.035896547
171	0x3a8e1fba	0.0010843195
172	0xbd70e20b	-0.05880932
173	0xbc98fbbb	-0.018674722
174	0xbcd3c581	-0.025851013
175	0x3cef5777	0.029216511
176	0xbcc1523c	-0.023598783
177	0xbcb42466	-0.021990012
178	0x3bb0ed14	0.0053993557
179	0xbc3c2715	-0.011483927
180	0xbab78adb	-0.0014003174
181	0x3de8f36a	0.113745525
182	0x3cab09d8	0.020878717
183	0xbc404a02	-0.011736395
184	0x3d34655b	0.044041973
185	0xbc7cffcc	-0.015441846
186	0xbd3aa5fc	-0.04556845
187	0x3c17b0d8	0.009258471
188	0x3bcb7822	0.0062093893
189	0xbc6df6de	-0.01452419
190	0x3d8d91cd	0.06912575
191	0xbd1ebfc8	-0.038757116
192	0xbe146c95	-0.14494546
193	0xbd689012	-0.05677802
194	0x3da6e692	0.081494465
195	0xbe14f24e	-0.14545557
196	0xbd6d42e0	-0.057925105
197	0xbd3deae8	-0.046366602
198	0x3dc20b93	0.09474864
199	0xbd396f64	-0.045272246
200	0xbd068e3d	-0.032850493
201	0xbd376152	-0.044770546
202	0xbc0105af	-0.00787489
203	0x3d807b30	0.06273496
204	0xbc95834d	-0.018251086
205	0xbcf0842b	-0.029359898
206	0xbc23deca	-0.0100018475
207	0x3d624098	0.055237383
208	0xbddcc58a	-0.10779865
209	0xbd78b215	-0.060716707
210	0xbc9f4dfd	-0.019446367
211	0x3d4a39c4	0.049371496
212	0x3d0aa4b1	0.03384847
213	0x3d39c989	0.045358215
214	0x3d804ffa	0.06265254
215	0xbcb144dc	-0.02163928
216	0x3df5bf8e	0.11999427
217	0x3da87e8e	0.082272634
218	0xbdc25960	-0.09489703
219	0x3c50fd22	0.012755664
220	0xbcf51cc6	-0.029920947
221	0xbc87ee88	-0.016593233
222	0x3cd20f3a	0.025642026
223	0xbdaf124a	-0.0854841
224	0xbd441c5b	-0.047878604
225	0xbbc64e9a	-0.0060518505
226	0xbd0df422	-0.03465665
227	0xbe13d925	-0.14438303
228	0xbe0fa223	-0.14026694
229	0xbd39d3fc	-0.04536818
230	0xbcde3699	-0.027125644
231	0x3c6e7782	0.01455486
232	0x3bd403c4	0.0064701755
233	0xbc8a01d0	-0.016846567
234	0xbd9b9445	-0.075966395
235	0xbe14f9e7	-0.14548455
236	0x3d7f2679	0.06229255
237	0xbbf25c95	-0.0073962905
238	0x3c8c762a	0.017146189
239	0x3d983d89	0.07433612
240	0xbd9125b9	-0.07087273
241	0xbd1811fb	-0.037126523
242	0xbd83bffd	-0.06433103
243	0x3c1b08e1	0.009462566
244	0x3d493201	0.049119953
245	0x3da7f9be	0.082019314
246	0x3d5e17ad	0.054221798
247	0xbd4f9fdb	-0.05068956
248	0x3db40563	0.0879009
249	0x3d925cca	0.07146604
250	0xbd00e3d0	-0.03146726
251	0x3cfee96c	0.031117164
252	0x3de91cd2	0.1138245
253	0xbd3483ed	-0.044071127
254	0x3d82443a	0.063606694
255	0xbc9aeb86	-0.018911134

arr_1 f4 [46]
0	0x3fa7a02f	1.3095759
1	0x3f676e7b	0.90402955
2	0x3f748792	0.95519364
3	0x3f8e667b	1.1125025
4	0x3fc02a17	1.5012845
5	0x3f9eb8db	1.2400163
6	0x3f2c1b4f	0.6722917
7	0x3f9cf37f	1.2261809
8	0x3f82e417	1.0225857
9	0x3f94fcb9	1.1639625
10	0x3f529626	0.8226036
11	0x3f78451d	0.9698046
12	0x3f90a9ef	1.130186
13	0x3fdcefdc	1.7260699
14	0x3f06b4e5	0.52619773
15	0x3f300f7a	0.68773615
16	0x3f2c3acc	0.67277217
17	0x3f568a95	0.8380521
18	0x3f1928e6	0.5982803
19	0x3f020661	0.50790983
20	0x3f25859d	0.64657
21	0x3f3c35b6	0.73519456
22	0x3f21b09d	0.63160115
23	0x3f1e04b0	0.617259
24	0x3f12883b	0.5723912
25	0x3f099be3	0.5375349
26	0x3f1d5662	0.61459935
27	0x3f1a4479	0.6026073
28	0x3f17eba5	0.5934394
29	0x3f1279f6	0.5721735
30	0x3f133021	0.57495314
31	0x3f1ac689	0.6045919
32	0x3f2484df	0.64265245
33	0x3f28c244	0.65921426
34	0x3f4010fd	0.7502592
35	0x3f0fee46	0.5622295
36	0x3f27f36a	0.65605795
37	0x3f2718ce	0.65272224
38	0x3f3ab5f8	0.7293391
39	0x3f245e8d	0.64206773
40	0x3f1bcb73	0.60857314
41	0x3f12bc93	0.5731899
42	0x3f2a11e6	0.6643356
43	0x3f400a20	0.7501545
44	0x3f306cc3	0.6891596
45	0x3eef14c4	0.4669553

arr_2 f4 [46]
0	0xbd061d82	-0.032742985
1	0x3e09e092	0.13464573
2	0xbd15cb8b	-0.036571067
3	0xbe1a078e	-0.15041944
4	0x3dda555c	0.10660812
5	0xbcbb2cd3	-0.022848522
6	0xbf716060	-0.9428768
7	0xbda9a5bd	-0.08283565
8	0x3c482529	0.012215891
9	0x3cc9feab	0.024657568
10	0x3e8095b6	0.2511422
11	0x3e170d1d	0.14751096
12	0x3e0c3396	0.13691553
13	0x3c972e40	0.01845467
14	0xbe3962a3	-0.18104033
15	0x3da394ec	0.07987389
16	0xbd996c8a	-0.07491405
17	0xbe56b626	-0.20967922
18	0xbc87c10d	-0.016571546
19	0xbda9b337	-0.08286136
20	0x3d18e190	0.03732449
21	0x3e7ac910	0.24490762
22	0x3dd06c1f	0.101768725
23	0x3dd78a2e	0.105244026
24	0xbdeb54be	-0.11490773
25	0xbc633775	-0.013868202
26	0x3dae03a8	0.08496791
27	0xbe97d356	-0.29653424
28	0x3d52cd02	0.051465042
29	0xbe82f20b	-0.2557529
30	0xbd76b513	-0.06023128
31	0x3d82c449	0.06385095
32	0x3e0726bc	0.1319837
33	0xbd58e56d	-0.052953172
34	0x3d2e8c80	0.04261446
35	0x3d4eab02	0.050456055
36	0xbdfdb19a	-0.123873904
37	0x3dad77cd	0.08470116
38	0x3e356295	0.17713387
39	0xbdaeca14	-0.08534637
40	0xbe01ec95	-0.12687905
41	0xbdd09fe3	-0.10186746
42	0x3e3d0564	0.18459088
43	0xbdbcd338	-0.09219974
44	0x3d59038d	0.052981902
45	0xbddf4bc7	-0.10903125

arr_3 f4 [46]
0	0xbb1fe194	-0.002439593
1	0xbcd8a736	-0.02644692
2	0x3d89024c	0.06689891
3	0x3aa07052	0.0012240505
4	0xbbeeea66	-0.007291126
5	0x3e99c421	0.30032447
6	0x35da5591	1.6267169e-06
7	0x3a1a68fa	0.00058902765
8	0xbaecfb96	-0.001808035
9	0xba598046	-0.00082970073
10	0xbb62b4fe	-0.0034592743
11	0xbb0af785	-0.0021204662
12	0xb9db8113	-0.00041867103
13	0xbb109b25	-0.002206513
14	0x3742b299	1.1604884e-05
15	0x3b7c12c9	0.0038463345
16	0x3c63b09e	0.013897089
17	0xbcafa69b	-0.021441748
18	0x3b167329	0.0022956824
19	0xbb2e04ea	-0.0026553222
20	0x3ba35fd6	0.00498579
21	0x3c803b56	0.015653294
22	0xbc0658e6	-0.008199906
23	0x3bd336d6	0.006445746
24	0x3b2a8a6b	0.0026022445
25	0xba696dae	-0.0008904588
26	0x3b71c1df	0.0036889238
27	0x3b7af6a9	0.0038293994
28	0xbb2769f7	-0.0025545338
29	0xbad2a46e	-0.0016070732
30	0xbbc9bb95	-0.0061563947
31	0x3a1c5e2e	0.00059649616
32	0xbc03edfe	-0.008052347
33	0xbc139bf7	-0.009009353
34	0x3baf9ce2	0.005359278
35	0xbc07fadc	-0.008299556
36	0xb81575fa	-3.5634243e-05
37	0xba9b65ff	-0.0011855959
38	0x3c9ffdc1	0.019530179
39	0x3bcb23d2	0.0061993385
40	0xbb93a0f1	-0.0045052697
41	0xbb3bb208	-0.002864005
42	0x3af85706	0.0018946833
43	0xbc946fe6	-0.018119764
44	0x3c73a1d3	0.014870125
45	0xbc0b976a	-0.008519987

arr_4 f4 [46]
0	0x3f7f7b35	0.99797374
1	0x3ef68f3a	0.48156148
2	0x3f02e3be	0.51128757
3	0x3f00734a	0.5017592
4	0x3efe519d	0.4967164
5	0x3e56d1b1	0.20978428
6	0x35da4f68	1.6265376e-06
7	0x3f80b72f	1.0055903
8	0x3f7f92fd	0.9983366
9	0x3f7ff2cb	0.9997985
10	0x3f7f5b72	0.9974891
11	0x3f7f745e	0.9978694
12	0x3f801cdf	1.0008811
13	0x3f7fd966	0.999411
14	0x3b9a0a43	0.0047009303
15	0x3bce2947	0.0062915417
16	0x3ba5c871	0.005059295
17	0x3bddac08	0.0067648925
18	0x3b9ca8e9	0.004780878
19	0x3b8d8444	0.004318746
20	0x3ba5a7d8	0.005055409
21	0x3bdcc0b3	0.0067368387
22	0x3bb8d662	0.005640791
23	0x3baeffe5	0.0053405636
24	0x3bac62a9	0.0052607846
25	0x3ba28f8e	0.0049609607
26	0x3ba26c33	0.004956746
27	0x3ba81d61	0.0051304554
28	0x3baf4058	0.0053482465
29	0x3ba77ae1	0.005111084
30	0x3bb5720c	0.005537277
31	0x3bb64659	0.0055625853
32	0x3bb53dec	0.0055310633
33	0x3bd3a23c	0.006458549
34	0x3bdb7f5a	0.006698531
35	0x3ba944de	0.0051656803
36	0x3bad66e5	0.005291807
37	0x3bd7a978	0.0065814815
38	0x3bbc745a	0.005751175
39	0x3bbf0a79	0.005830106
40	0x3bb0c34b	0.0053943745
41	0x3b998578	0.0046851
42	0x3bbb6bf8	0.005719658
43	0x3bd589f5	0.00651669
44	0x3bd02fe4	0.0063533653
45	0x3b8bbbc1	0.0042643254

arr_5 f4 [3, 46, 32]
0	0xbdfca6f7	-0.123365335
1	0x3e8edce0	0.2790289
2	0xbe143750	-0.14474225
3	0xbdc57685	-0.096417464
4	0x3e5434f9	0.20723332
5	0xbea2e0fd	-0.31812277
6	0x3d81ff95	0.063475765
7	0xbe1c6282	-0.15271953
8	0xbcf56a5d	-0.029957945
9	0x3d1b0c0a	0.03785328
10	0x3e296621	0.16542865
11	0xbea4d22a	-0.32191592
12	0x3c45968f	0.012059822
13	0x3da4e5c4	0.08051637
14	0xbcd818e6	-0.02637906
15	0x3e8b6b5c	0.27230346
16	0xbecd215e	-0.4006452
17	0xbd299979	-0.04140613
18	0xbcb04c0d	-0.021520639
19	0x3de4a2a7	0.11163836
20	0x3d1a7c96	0.03771647
21	0x3eb007d3	0.3438097
22	0x3e387068	0.1801163
23	0x3de02be8	0.109458745
24	0x3df1db7b	0.11809441
25	0x3e3bc95b	0.1833853
26	0x3dcf5387	0.101233535
27	0x3cf655d6	0.030070227
28	0xbc5cd6a3	-0.013478908
29	0x3e4441cd	0.19165726
30	0x3dfcdeed	0.12347207
31	0x3e82e282	0.25563437
32	0x3c9c3dcd	0.019072438
33	0x3c45266a	0.012033084
34	0xbc5718c0	-0.013128459
35	0xbea44f6a	-0.32091838
36	0xbde8f22d	-0.11374316
37	0xbd8333af	-0.06406342
38	0xbba56572	-0.0050474936
39	0x3de9d1ed	0.11416993
40	0xbdb77939	-0.08958668
41	0x3d9da69b	0.07697793
42	0xbd06d8b1	-0.032921497
43	0x3d4fa2e8	0.05069247
44	0xbd19cd48	-0.037549287
45	0xbc015787	-0.007894403
46	0x3de1b180	0.110201836
47	0xbeeed4e2	-0.46646792
48	0x3b8944c9	0.004189108
49	0x3e45fa68	0.19333804
50	0x3c76e999	0.015070342
51	0x3e1f90a9	0.15582527
52	0x3bebca28	0.0071957298
53	0x3c8a207e	0.016861197
54	0xbc49e334	-0.012322236
55	0xbe27cba9	-0.16386284
56	0xbd9216b1	-0.07133234
57	0xbe00dbee	-0.12583897
58	0x3d4b6880	0.049660206
59	0x3e1dff87	0.15429507
60	0xbc81da58	-0.015851185
61	0x3de32209	0.11090476
62	0x3d26ecd3	0.040753197
63	0xbd1b7b9d	-0.037959684
64	0x3c4fe5da	0.012689078
65	0xbe058969	-0.13040699
66	0x3d6d242d	0.057895828
67	0x3f230d66	0.6369232
68	0xbd0a52c2	-0.03377033
69	0xbcab6234	-0.02092085
70	0x3c9ea44f	0.019365458
71	0x3d256a11	0.040384356
72	0x3d8334c7	0.06406551
73	0x3e249ca8	0.16075385
74	0xbdb0a88f	-0.086259
75	0x3d6098b2	0.05483312
76	0xbc40a9e4	-0.011759255
77	0xbd4e803c	-0.050415263
78	0x3d9fc2e9	0.07800848
79	0xbe8587f4	-0.26080287
80	0xbda5912b	-0.08084329
81	0xbdba2ceb	-0.09090599
82	0x3c13563d	0.008992729
83	0xbc40065f	-0.011720269
84	0x3e0ad08b	0.13556115
85	0xbd427e13	-0.047483515
86	0x3d209bbd	0.039211024
87	0xbb83c68f	-0.0040214728
88	0xbdc15a65	-0.094410695
89	0xbe08a083	-0.1334248
90	0x3e05ab59	0.13053645
91	0x3ded7895	0.11595265
92	0x3db70883	0.0893717
93	0xbdbdecb4	-0.09273663
94	0x3b3b7acf	0.0028607135
95	0xbca6dd49	-0.020369189
96	0x3e5a477f	0.21316336
97	0xbdc85294	-0.097813755
98	0x3c97fb30	0.018552393
99	0xbdf6ba98	-0.12047309
100	0xbdbec5d0	-0.093150735
101	0xbe4da05d	-0.20080705
102	0x3c51bff4	0.012802113
103	0x3d3e9514	0.04652889
104	0x3e891521	0.26773933
105	0x3e35e7a2	0.17764142
106	0x3d21248d	0.0393415
107	0xbdb1b9ba	-0.08678003
108	0x3cfc3387	0.030786289
109	0x3deb33ea	0.11484511
110	0xbdfb0b4f	-0.12258016
111	0x3d33302c	0.043747112
112	0x3d9ba28e	0.07599364
113	0xbe0e14fd	-0.13875194
114	0x3e5868cc	0.21133727
115	0x3e993294	0.299214
116	0x3d54e572	0.05197663
117	0x3d21d82d	0.039512802
118	0xbcb944d3	-0.022615826
119	0xbdb26ef0	-0.08712566
120	0xbd36b216	-0.04460343
121	0x3daafa08	0.08348471
122	0x3d867e8d	0.065671064
123	0xbd26a7d9	-0.040687416
124	0x3e23e460	0.16005087
125	0x3e4d35a8	0.2004
126	0xbaebe02d	-0.0017995887
127	0x3c9d3f35	0.019195179
128	0x3c28dd7e	0.010306714
129	0xbcf747df	-0.030185638
130	0x3e31af1a	0.17351952
131	0x3e7b67fa	0.24551383
132	0xbe9cb171	-0.30604127
133	0x3e9eec9c	0.31039894
134	0xbdaeb4c5	-0.08530573
135	0x3ed0e30b	0.4079822
136	0xbe6f7eda	-0.23388234
137	0xbe89eeb8	-0.2693994
138	0x3db68b47	0.08913284
139	0x3d1c2701	0.038123135
140	0xbe106989	-0.14102758
141	0xbd0857c9	-0.033286843
142	0xbe952096	-0.29126424
143	0x3e5b7c5f	0.21434163
144	0xbbd013c3	-0.006350012
145	0xbd165371	-0.03670067
146	0x3d6bb128	0.057541996
147	0x3d14a429	0.036289368
148	0xbe18e9a6	-0.1493288
149	0x3e9d00fd	0.30664816
150	0xbf0fe4f0	-0.56208706
151	0xbea3296e	-0.31867546
152	0xbe892a70	-0.2679019
153	0x3e488f3f	0.19585894
154	0x3caa2efd	0.020774359
155	0xbc9c819d	-0.019104773
156	0xbd637ad5	-0.055537064
157	0x3dc17a0f	0.09447109
158	0x3d7e3f41	0.062072042
159	0xbd373466	-0.044727705
160	0xbe558587	-0.20851718
161	0x3d7b4055	0.06134065
162	0xbe3ed82c	-0.1863715
163	0x3e7b3992	0.2453368
164	0x3e038f80	0.1284771
165	0x3d9954e0	0.07486892
166	0xbdff3bfa	-0.124626115
167	0xbdbcdd57	-0.09221905
168	0xbd417a9e	-0.047236077
169	0xbdea0f66	-0.11428718
170	0xbdd0964a	-0.10184915
171	0xbcc5f53d	-0.02416479
172	0xbdac33f8	-0.0840835
173	0x3e116507	0.14198695
174	0xbe0540b3	-0.13012962
175	0x3c82cfae	0.01596817
176	0x3dc0b1f6	0.09408943
177	0xbe10e58c	-0.14150065
178	0x3e51c24d	0.20484276
179	0xbeac0b90	-0.3360257
180	0xbe240e86	-0.16021165
181	0xbdc8e355	-0.09808985
182	0xbd697695	-0.056997854
183	0x3cbd1bcb	0.023084542
184	0xbd9f5c71	-0.07781304
185	0xbe84a131	-0.2590423
186	0xbe51eea0	-0.20501184
187	0x3d5f64b0	0.054539382
188	0xbdccea7f	-0.10005664
189	0xbebe1eff	-0.37133023
190	0x3df20d57	0.118189506
191	0x3de20425	0.11035947
192	0x3ea12196	0.31470937
193	0xbd89774f	-0.067122094
194	0x3e8a21d4	0.26978934
195	0x3eaecff5	0.34143034
196	0x3eb3059b	0.34965214
197	0x3e8430af	0.25818393
198	0x3e3e9be5	0.18614157
199	0xbdafe846	-0.085892245
200	0x3e3e414c	0.18579596
201	0x3e3a3d07	0.18187343
202	0xbe591387	-0.21198855
203	0x3dca49de	0.0987737
204	0xbd271fbc	-0.04080175
205	0x3e618917	0.22024952
206	0x3e98c004	0.29833996
207	0x3ea39159	0.3194683
208	0x3eb5510a	0.3541339
209	0x3cc06b8c	0.023488782
210	0xbdfccc48	-0.12343651
211	0x3e747d73	0.2387598
212	0x3ea0f3fb	0.31436142
213	0x3d9b09c5	0.07570223
214	0x3e347282	0.17621806
215	0x3e83c0f8	0.2573316
216	0x3e721ebe	0.2364454
217	0x3e2a80ec	0.16650742
218	0x3e57f220	0.21088457
219	0x3ed8ef46	0.4237005
220	0x3f0110c0	0.50416183
221	0x3ec35d49	0.38157108
222	0xbeaa36ec	-0.33245027
223	0x3ee387cd	0.44439545
224	0x3e2dbd89	0.16966833
225	0x3dcec24f	0.10095655
226	0xbd8bdcf5	-0.068292536
227	0x3e137b41	0.14402486
228	0x3d242fba	0.040084578
229	0x3d83e12b	0.06439432
230	0x3d033bbe	0.032039396
231	0xbdc51fc5	-0.096252
232	0xbd52593d	-0.051354636
233	0x3d114343	0.035464536
234	0xbe580092	-0.21093968
235	0x3e24aa74	0.16080648
236	0x3e3fd190	0.18732285
237	0x3e0515d0	0.12996602
238	0x3e85c957	0.26130173
239	0x3d38ed32	0.045148082
240	0xbe374702	-0.17898181
241	0x3d597c5d	0.053097118
242	0xbd97b939	-0.07408375
243	0x3e4aeffe	0.19818112
244	0x3e6dc2fe	0.23218915
245	0x3e3d7eef	0.18505453
246	0x3e832681	0.25615314
247	0x3c8169b3	0.015797472
248	0xbd84abc0	-0.06478071
249	0xbb24bf27	-0.002513835
250	0x3cf8aec8	0.03035678
251	0xbd2e8d7b	-0.042615395
252	0xbe193c21	-0.14964344
253	0x3ebb6854	0.36603034
254	0xbeaeb13e	-0.341196
255	0x3c95aede	0.01827186

arr_6 f4 [32]
0	0xbe0956d9	-0.13412036
1	0xbd1364b6	-0.035984717
2	0xbe34ce8a	-0.17656913
3	0xbe848872	-0.2588535
4	0xbe78e1f3	-0.24304943
5	0xbe49ad9c	-0.19695133
6	0xbe043ea9	-0.12914528
7	0xbd9410e3	-0.072297834
8	0xbd172643	-0.036901724
9	0xbe66e30a	-0.22547546
10	0x3e2c7e39	0.16845025
11	0xbded5d42	-0.11590053
12	0xbdd27a96	-0.10277288
13	0xbe346098	-0.17614973
14	0xbd6b963b	-0.057516318
15	0xbe3f77ff	-0.18698119
16	0xbe76ab13	-0.24088697
17	0xba88e8d7	-0.0010445368
18	0x3c978c16	0.018499415
19	0xbe08940c	-0.13337725
20	0xbe30fcd1	-0.17283942
21	0xbbd67308	-0.0065444745
22	0xbd185547	-0.0371907
23	0xbe72fdae	-0.23729584
24	0x3c9eb027	0.019371105
25	0xbdb0f173	-0.08639803
26	0xbdc44c2e	-0.095848426
27	0xbbe24700	-0.0069054365
28	0xbdc58ff0	-0.096465945
29	0xbbad9fb9	-0.0052985814
30	0x3d96b4c0	0.07358694
31	0xbe74ce2e	-0.23906776

arr_7 f4 [32]
0	0x3f6a6651	0.9156237
1	0x3f8325af	1.0245875
2	0x3f745a1e	0.9545001
3	0x3f866441	1.0499345
4	0x3f774954	0.96596265
5	0x3f90a917	1.1301602
6	0x3f9f3389	1.2437602
7	0x3f98b316	1.1929653
8	0x3f85e420	1.0460243
9	0x3f6f4a21	0.93472487
10	0x3f7be4dd	0.9839609
11	0x3f83e4b3	1.0304168
12	0x3f9578c1	1.1677476
13	0x3f57d6ba	0.8431202
14	0x3f6bfc4d	0.92181855
15	0x3f772fcc	0.9655731
16	0x3f756253	0.95853156
17	0x3f846374	1.0342851
18	0x3f8415d4	1.0319161
19	0x3f74064c	0.9532211
20	0x3f66824d	0.90042573
21	0x3f84d537	1.0377568
22	0x3f80b45c	1.0055041
23	0x3f75c9e1	0.9601117
24	0x3f6b4640	0.9190407
25	0x3f8c420a	1.0957654
26	0x3f7936b1	0.9734908
27	0x3f6bafa4	0.9206488
28	0x3f672334	0.9028809
29	0x3f6a70fd	0.91578656
30	0x3f80025c	1.000072
31	0x3f716444	0.9429362

arr_8 f4 [32]
0	0x3ef9732e	0.48720688
1	0x3f2ebb13	0.682542
2	0x3f311704	0.69175744
3	0x3ef9e475	0.4880711
4	0x3ec40392	0.38283974
5	0x3f1b1061	0.6057187
6	0x3e59a24b	0.21253316
7	0x3f4aaa1a	0.79165804
8	0x3f117be4	0.5682967
9	0x3ef51d2e	0.47873825
10	0x3f0a4e01	0.54025275
11	0x3f147bb4	0.58001256
12	0x3ecf9b79	0.40548304
13	0x3e8c2812	0.2737432
14	0x3e84022d	0.2578291
15	0x3f2a4c13	0.6652233
16	0x3efcb3dd	0.49355975
17	0x3eccd69a	0.40007478
18	0x3ede16e4	0.4337684
19	0x3ecd3b5b	0.40084347
20	0x3eba03f7	0.3633115
21	0x3f2f958f	0.68587583
22	0x3efff110	0.49988604
23	0x3e471828	0.19442809
24	0x3ecc8b64	0.39950097
25	0x3ed42cb5	0.4144036
26	0x3eb99a49	0.36250523
27	0x3eb35b76	0.35030717
28	0x3e384db2	0.17998388
29	0x3e067541	0.13130666
30	0x3f17e213	0.59329337
31	0x3e241126	0.16022167

arr_9 f4 [32]
0	0xbd4d71f8	-0.050157517
1	0x3eefa634	0.4680649
2	0x3e4c6130	0.19958949
3	0xbf10d54b	-0.5657546
4	0x3e062eff	0.13103865
5	0xbda0ad97	-0.0784561
6	0xbf094d87	-0.5363392
7	0x3e6c526d	0.23078318
8	0x3e9dd089	0.30823162
9	0xbdfa032a	-0.12207635
10	0x3f9101fe	1.1328733
11	0x3e911aa8	0.2834065
12	0xbeb2529a	-0.34828645
13	0xbea10518	-0.314492
14	0x3cb35454	0.021890797
15	0xbe9d20ec	-0.3068918
16	0xbef941ac	-0.48682916
17	0xbe81476c	-0.25249803
18	0xbdcc06db	-0.09962245
19	0xbe047d59	-0.12938441
20	0xbe1bf8ee	-0.15231678
21	0x3e8a7f84	0.27050412
22	0x3ea39bfd	0.31954947
23	0xbe5b3664	-0.21407467
24	0x3eb58168	0.35450292
25	0xbe73b264	-0.2379852
26	0xbe328d6e	-0.17436764
27	0xbeab3b39	-0.3344362
28	0xbeb78187	-0.3584101
29	0x3da4cd5a	0.0804698
30	0x3f0c0dad	0.5470837
31	0xbed919a1	-0.42402366

arr_10 f4 [32]
0	0x3f9bf54a	1.2184231
1	0x4047c58e	3.1214328
2	0x3fe6fff7	1.8046864
3	0x3ee94916	0.45563573
4	0x40234c25	2.5515225
5	0x3fb32ccf	1.399805
6	0x3e33ab7c	0.17545885
7	0x3f828a37	1.019843
8	0x3fe22986	1.7668922
9	0x3f815143	1.0102924
10	0x3f5d8344	0.8652842
11	0x4004fd39	2.0779555
12	0x3e6e0742	0.23244956
13	0x3f25dd3a	0.6479069
14	0x3f323391	0.69609934
15	0x3f2d3328	0.67656183
16	0x3e82ed92	0.25571877
17	0x3f2e135d	0.67998296
18	0x3f4a11c8	0.7893338
19	0x3f87771a	1.0583222
20	0x3fb62f82	1.4233248
21	0x3f658b94	0.89666104
22	0x40043926	2.065988
23	0x3f769b66	0.9633087
24	0x3fd57076	1.6674945
25	0x3ec19205	0.37806717
26	0x3f24e450	0.6441088
27	0x3efcded7	0.49388763
28	0x3f1586c2	0.5840875
29	0x3f9f2e74	1.2436051
30	0x3f9ebfe8	1.2402315
31	0x3f672c3c	0.9030187

arr_11 f4 [3, 32, 64]
0	0x3d2ffafb	0.042963963
1	0x3d523f81	0.051330093
2	0xbcb5fe4b	-0.022215983
3	0xbcd5b463	-0.026086992
4	0xbe1e5824	-0.1546331
5	0x3e333774	0.17501622
6	0xbd806b0c	-0.062704176
7	0xbc9299de	-0.017895635
8	0x3df52399	0.1196968
9	0xbcc9b962	-0.02462453
10	0xba8fdcc0	-0.0010975823
11	0xbe0ae2f2	-0.13563135
12	0xbde1e95d	-0.11030839
13	0x3e10a302	0.14124683
14	0xbd835928	-0.064134896
15	0x3db5ce96	0.08877294
16	0xbe0076b1	-0.12545277
17	0xbcb4e0ef	-0.022079913
18	0x3e0f6b69	0.14005817
19	0xbd148323	-0.036257874
20	0xbd8deae6	-0.06929569
21	0x3d90f988	0.07078844
22	0x3db64805	0.089004554
23	0x3dbda7d6	0.09260528
24	0x3c051064	0.008121584
25	0xbdbe9a1f	-0.0930674
26	0x3d207b39	0.039180014
27	0x3d372d7d	0.044721115
28	0x3e3d82f1	0.18506981
29	0x3d53602f	0.0516054
30	0x3db85012	0.08999647
31	0xbd1884af	-0.037235912
32	0xbe2b830f	-0.16749214
33	0xbd59e952	-0.053201027
34	0x3e2fcc3f	0.17167757
35	0xbdc06fbf	-0.09396314
36	0x3d1e4145	0.038636465
37	0xbded0963	-0.11574056
38	0xbb3f4bc7	-0.0029189454
39	0x3c891bfd	0.016736979
40	0xbe247e5d	-0.16063829
41	0x3e2226ff	0.15835188
42	0x3ce941b8	0.02847372
43	0x3de98eea	0.11404212
44	0x3cd97c85	0.026548633
45	0x3d40026c	0.04687731
46	0xbdcb683b	-0.0993199
47	0x3dc12f71	0.09432877
48	0x3e1ab5dd	0.15108438
49	0xbd9487ad	-0.072524406
50	0xb890e25b	-6.908617e-05
51	0xbdcdd1f9	-0.10049815
52	0x3d20b1c5	0.039232034
53	0xbd679950	-0.056542695
54	0xbe477a10	-0.19480157
55	0x3e02ba5f	0.12766407
56	0xbd395fac	-0.045257255
57	0xbc55e93e	-0.013056098
58	0xbcb916ee	-0.022593942
59	0xbc51181a	-0.012762094
60	0x3db1bea9	0.08678944
61	0x3d27e7e5	0.040992636
62	0x3dfd2c78	0.12361997
63	0x3d888b2f	0.06667172
64	0x3dd1d0a4	0.10244873
65	0xbe5e496a	-0.21707693
66	0x3dcd0812	0.10011305
67	0xbd6aea49	-0.057352338
68	0x3e23e558	0.16005456
69	0xbe0555ba	-0.13020983
70	0xbdaad023	-0.0834048
71	0x3df54fb7	0.11978095
72	0xbd88e4db	-0.06684276
73	0xbd238c02	-0.039928444
74	0xbd9254e6	-0.07145099
75	0xbd223f21	-0.039610986
76	0x3da06415	0.07831589
77	0xbd319b2b	-0.04336087
78	0xbe029ed7	-0.12755905
79	0x3da0f28f	0.078587644
80	0xbdbf85ab	-0.09351667
81	0x3dd3cf89	0.103423186
82	0x3e149469	0.14509739
83	0xbd6b3221	-0.057420854
84	0xbcc9b8c0	-0.024624228
85	0xbd198cbc	-0.03748773
86	0xbe2023ca	-0.15638652
87	0xbbc7c8f2	-0.0060969526
88	0xbd498865	-0.04920234
89	0xbddc6116	-0.10760705
90	0xbbe3097a	-0.00692862
91	0x3bfab842	0.00765136
92	0x3c645308	0.013935812
93	0x3d927fc8	0.071532786
94	0x3d8070ba	0.06271501
95	0xbcf697b5	-0.030101636
96	0xbdc646c6	-0.09681468
97	0x3de8f1a5	0.11374215
98	0x3e128574	0.14308721
99	0x3d63cc33	0.05561466
100	0x3df7eab5	0.12105314
101	0x3cab4c23	0.020910328
102	0xbbac50c2	-0.0052586505
103	0xbcc00ac1	-0.023442628
104	0xbbd0a69a	-0.0063675167
105	0x3db2b2f5	0.087255396
106	0x3c1568a3	0.009119186
107	0x3e221d53	0.15831499
108	0xbd45c40a	-0.04828266
109	0xbd56d10d	-0.05244546
110	0xbd4ecf64	-0.05049075
111	0x3d02e464	0.03195609
112	0xbd3dd7c9	-0.046348367
113	0x3cc5169b	0.02405863
114	0xbd097a75	-0.03356405
115	0x3d923ea6	0.071408555
116	0xbd93a9d9	-0.0721013
117	0xbd74e2f6	-0.05978676
118	0x3cf2a7cf	0.029621033
119	0xbc80b4be	-0.015711185
120	0xbdbacc6f	-0.09121024
121	0xbd955e0a	-0.07293327
122	0x3d2830f1	0.0410623
123	0xbca1ffe4	-0.019775338
124	0x3cb4ace3	0.022055095
125	0xbe531859	-0.20614757
126	0xbe67378f	-0.22579788
127	0x3b5861fc	0.0033017388
128	0xbc4e6d25	-0.012599264
129	0xbd0d1a56	-0.034448944
130	0xbdfabb5e	-0.12242769
131	0xbd84be55	-0.064816155
132	0x3d82190d	0.06352434
133	0xbd194dcb	-0.037427705
134	0xbcf5e106	-0.030014526
135	0xbd05d162	-0.032670386
136	0xbe19991d	-0.14999814
137	0x3e2aefd4	0.1669305
138	0xbc882996	-0.016621392
139	0xbc862f75	-0.016380051
140	0xbdb90abf	-0.09035253
141	0xbe321f9b	-0.17394869
142	0x3df57c46	0.11986594
143	0x3e724771	0.23660065
144	0x3e48bf74	0.19604284
145	0xbde99bac	-0.11406645
146	0x3b881290	0.0041526034
147	0xbd2af7d9	-0.041740272
148	0xbd7daa70	-0.06193012
149	0x3dc17b32	0.09447326
150	0xbc00d745	-0.007863824
151	0xbd0eefe9	-0.034896765
152	0x3d553572	0.052052923
153	0x3d8ce2cd	0.06879196
154	0xbe2c8b4c	-0.16850013
155	0xbe042fcd	-0.1290886
156	0x3e2f317c	0.1710872
157	0xbd80adfe	-0.062831864
158	0x3c856224	0.016282149
159	0xbdef7f9e	-0.11694263
160	0xbdddca6e	-0.10829626
161	0xbde88413	-0.11353316
162	0xbe434e37	-0.19072805
163	0x3deab0f5	0.11459533
164	0x3da4fa1a	0.080555156
165	0xbd9b9eec	-0.07598671
166	0xbd9d5f6d	-0.07684217
167	0xbc5fb930	-0.013654992
168	0xbcc97d32	-0.02459583
169	0x3e528a52	0.20560578
170	0x3e380f30	0.17974544
171	0x3e57c217	0.21070133
172	0xbda3a54e	-0.07990514
173	0xbc0793d4	-0.008274991
174	0x3d869f23	0.06573322
175	0xbda47eaa	-0.08031972
176	0xbe21e670	-0.15810561
177	0xbde10812	-0.109878674
178	0xbde97315	-0.11398903
179	0x3e4e415d	0.20142122
180	0x3e702357	0.23450981
181	0xbc564784	-0.013078574
182	0xbe9a7892	-0.30170113
183	0xbd843b83	-0.064566635
184	0x3b4ec3f4	0.0031549903
185	0x3dc1cf5b	0.09463378
186	0x3da0c8d1	0.07850803
187	0xbd6c2568	-0.05765286
188	0x3e28479b	0.16433565
189	0x3cbad57f	0.022806881
190	0x3d493ae2	0.04912842
191	0xbd108bc3	-0.035289537
192	0xbcce4839	-0.025180923
193	0x3e72b994	0.23703605
194	0x3e2a3c92	0.16624668
195	0x3c95efce	0.018302824
196	0x3dd0a37e	0.10187434
197	0x3d43d3f8	0.04780957
198	0x3e334d42	0.1750994
199	0x3d309eea	0.043120302
200	0x3d8ce043	0.06878712
201	0xbe7c0c21	-0.24614002
202	0x3c6a4ad4	0.014300067
203	0xbe4146c6	-0.18874654
204	0xbe7c2c33	-0.24626236
205	0xbe0f5b7e	-0.13999745
206	0xbe3378c0	-0.17526531
207	0xbda8de96	-0.0824558
208	0x3d8fe5d0	0.07026255
209	0xbe843691	-0.2582288
210	0xbdc1eac0	-0.09468603
211	0x3d6a5082	0.057205684
212	0x3d51df70	0.051238477
213	0xbdea2825	-0.11433438
214	0x3c4c0578	0.012452476
215	0x3defe0ca	0.11712797
216	0x3c5c6051	0.013450698
217	0xbe1434b2	-0.14473227
218	0xbde56d9d	-0.11202548
219	0xbd236e0f	-0.039899882
220	0xbc5d0848	-0.013490744
221	0xbdd5bb34	-0.10436097
222	0xbc8b7d5b	-0.017027548
223	0x3d2f26f1	0.042761747
224	0x3d1a6e03	0.03770257
225	0xbd72a73c	-0.05924152
226	0x3e831295	0.25600114
227	0x3c2678f6	0.010160675
228	0xbb78c1c4	-0.003795729
229	0x3d8d9d83	0.069148086
230	0xbe22ed8d	-0.15910931
231	0x3e39dd32	0.18150786
232	0xbb7cbc56	-0.0038564405
233	0x3e096832	0.13418654
234	0xbe2fd4bb	-0.17170994
235	0xbe0dfd60	-0.13866186
236	0xbe26c903	-0.16287617
237	0x3bf42ebe	0.007451861
238	0x3e191a66	0.14951476
239	0xbde55496	-0.11197774
240	0x3d134be2	0.03596104
241	0x3db93e20	0.090450525
242	0x3e0179a4	0.12644058
243	0x3db86844	0.09004262
244	0xbdf58c10	-0.119896054
245	0xbd44bb59	-0.04803023
246	0xbd77e20e	-0.060518317
247	0xbd1bc2e1	-0.038027648
248	0xbe8212b5	-0.25404897
249	0x3c8e49b9	0.017369138
250	0x3d57dc94	0.052700594
251	0xbcf1bbc3	-0.029508477
252	0xbd937b70	-0.07201278
253	0xbabd6142	-0.0014448541
254	0xbe192c08	-0.14958203
255	0x3ca097f6	0.01960371

arr_12 f4 [64]
0	0x3ca3112a	0.019905645
1	0xbe460934	-0.19339448
2	0xbddedddd	-0.10882161
3	0x3e1c3dce	0.15257952
4	0x3e31bdde	0.17357585
5	0xbe5b9841	-0.21444799
6	0xbd90ee2d	-0.070766784
7	0xbdfeafb8	-0.124358594
8	0xbdde8e88	-0.108670294
9	0xbd9f40f1	-0.077760585
10	0x3de01869	0.10942156
11	0xbe4767e7	-0.1947323
12	0xbe4fb014	-0.20282012
13	0xbe3c4200	-0.18384552
14	0xbcdfb744	-0.027309068
15	0x3bc6cc92	0.006066867
16	0xbe922edd	-0.2855138
17	0x3ded3ed1	0.11584247
18	0x3e2679c7	0.16257392
19	0xbe8a86e2	-0.27056032
20	0xbe951d00	-0.29123688
21	0x3dd8f4cf	0.105935685
22	0xbe0d1ff3	-0.13781719
23	0xbdc4f36b	-0.09616741
24	0x3e7da9bc	0.2477178
25	0xbec1050a	-0.37699157
26	0xbe82a1bc	-0.2551402
27	0xbdf447a1	-0.11927725
28	0xbea127af	-0.3147559
29	0xbd67a4ff	-0.056553837
30	0xbd904106	-0.07043652
31	0xbe8d265a	-0.27568322
32	0x3d4c79bc	0.049920782
33	0xbdff5a54	-0.124684006
34	0x3d517391	0.051135603
35	0xbde87ef2	-0.11352338
36	0xbd14bc29	-0.036312256
37	0xbe25aaf3	-0.16178493
38	0xbe26a03d	-0.16272064
39	0xbdfb7f66	-0.12280159
40	0x3d77e5cb	0.060521882
41	0xbdcef1d0	-0.10104716
42	0xbe172be7	-0.14762841
43	0xbe205973	-0.15659122
44	0x3db2982d	0.087204315
45	0xbbd00a8c	-0.0063489135
46	0xbe60ad58	-0.21941125
47	0xbd21d5e1	-0.03951061
48	0xbccdabfb	-0.02510642
49	0xbe29afb1	-0.16570927
50	0x3ea2f9d5	0.31831232
51	0xbd15ee2a	-0.036604084
52	0xbeacec0c	-0.3377384
53	0x3e1e8a7c	0.15482515
54	0xbe2bafe8	-0.16766322
55	0x3c52a503	0.012856725
56	0xbeb84bb6	-0.35995263
57	0xbe7ea97c	-0.2486934
58	0xbdd22ac0	-0.1026206
59	0xbe3739da	-0.17893162
60	0xbd49c4fb	-0.04926012
61	0xbe95b850	-0.29242182
62	0xbe6ce939	-0.23135842
63	0xbe8d7348	-0.27627015

arr_13 f4 [64]
0	0x3f84f365	1.0386778
1	0x3f85bd5a	1.044841
2	0x3f80ffff	1.0078124
3	0x3f826c65	1.0189329
4	0x3f827c36	1.0194156
5	0x3f7ecde3	0.9953291
6	0x3f66c0e2	0.90138066
7	0x3f81821d	1.0117832
8	0x3f8bb427	1.0914353
9	0x3f6f33b1	0.9343825
10	0x3f818995	1.0120112
11	0x3f885139	1.0649787
12	0x3f5f3a20	0.87198067
13	0x3f81c9bc	1.013969
14	0x3f82089f	1.0158881
15	0x3f6e1782	0.9300462
16	0x3f742230	0.95364666
17	0x3f6f2b04	0.9342501
18	0x3f664b36	0.8995851
19	0x3f8ac7e8	1.0842257
20	0x3f7d0658	0.98837805
21	0x3f6afd28	0.91792536
22	0x3f81f1cb	1.0151914
23	0x3f8971a2	1.0737803
24	0x3f785847	0.970097
25	0x3f78723a	0.97049296
26	0x3f88ad87	1.0677956
27	0x3f80d717	1.006564
28	0x3f78bed4	0.9716618
29	0x3f72a925	0.94789344
30	0x3f7f773b	0.99791306
31	0x3f81fb1a	1.0154755
32	0x3f8fa333	1.122168
33	0x3f78b66a	0.9715334
34	0x3f83827f	1.0274199
35	0x3f6dd60b	0.9290473
36	0x3f82d2f4	1.0220628
37	0x3f85e574	1.0460649
38	0x3f86dd7a	1.0536339
39	0x3f89eaea	1.0774815
40	0x3f78c204	0.97171044
41	0x3f7f1332	0.99638665
42	0x3f7dc164	0.99123216
43	0x3f5da618	0.86581564
44	0x3f82ab81	1.0208589
45	0x3f8ec5b1	1.1154081
46	0x3f844398	1.0333128
47	0x3f61cbd6	0.88201654
48	0x3f7bf806	0.9842533
49	0x3f861b9a	1.0477173
50	0x3f81b199	1.0132324
51	0x3f6dd9a2	0.92910206
52	0x3f718ee1	0.9435864
53	0x3f89a53c	1.075355
54	0x3f6bd134	0.92116094
55	0x3f8f45e8	1.1193209
56	0x3f70c66d	0.94052774
57	0x3f7ff985	0.9999011
58	0x3f77a4ef	0.96736044
59	0x3f829065	1.0200316
60	0x3f7ad755	0.9798482
61	0x3f8ab17e	1.0835416
62	0x3f724d68	0.9464936
63	0x3f81b945	1.0134665

arr_14 f4 [64]
0	0x3e5cf624	0.2157827
1	0xbbd1140c	-0.0063805636
2	0x3d965751	0.07340873
3	0x3caf8ab0	0.021428436
4	0x3d9839bc	0.07432887
5	0xbc00062d	-0.007813972
6	0xbe5519fd	-0.20810695
7	0xbc2a510b	-0.010395299
8	0x3e3946f0	0.18093467
9	0xbe3d564c	-0.18489951
10	0xbccc99cf	-0.024975685
11	0x3bad2982	0.005284489
12	0xbeac2d8d	-0.33628502
13	0x3ca3485a	0.01993196
14	0xbd3dbd5f	-0.046323176
15	0xbe63e680	-0.22255898
16	0xbe5bf918	-0.2148174
17	0x3ca1dd80	0.01975894
18	0xbd3b6400	-0.045749664
19	0xbc997975	-0.018734673
20	0xbdab1c85	-0.08355049
21	0x3dfb5c8c	0.12273511
22	0xbc2d60dd	-0.010582176
23	0x3e0cebf3	0.13761882
24	0xbd0f48bd	-0.034981478
25	0xbe5e2651	-0.21694304
26	0x3d87890d	0.06617937
27	0x3e7e94b3	0.24861412
28	0xbe8651af	-0.26234195
29	0xbd2cb3b1	-0.042163555
30	0x3dc52345	0.09625868
31	0xbbed3313	-0.0072387545
32	0x3d728a9b	0.059214216
33	0x3bde49b0	0.0067836866
34	0x3d52af8c	0.051436946
35	0xbcaee8ae	-0.021351185
36	0xbd59fa3f	-0.05321717
37	0x3d88a68f	0.066723935
38	0x3db40e76	0.08791821
39	0xbd0f58ea	-0.034996904
40	0x3cd3150e	0.025766876
41	0xbe0db1fb	-0.13837425
42	0xbe307a07	-0.1723405
43	0xbdfc1cee	-0.123102054
44	0x3bc59392	0.0060295546
45	0x3e0d08b6	0.13772854
46	0xbd8fe25a	-0.07025595
47	0xbdaf34b7	-0.085549764
48	0x3da47bc1	0.08031417
49	0xbd8eeaa4	-0.06978348
50	0x3c8ea728	0.01741369
51	0xbde34490	-0.11097062
52	0xbe5b7119	-0.21429862
53	0x3e31f49e	0.1737847
54	0x3dfe133b	0.12406012
55	0x3e11fd0c	0.14256686
56	0xbe342731	-0.17593075
57	0xbe4f07c8	-0.20217812
58	0xbe590716	-0.2119411
59	0x3daa7e87	0.083249144
60	0xbe0c326e	-0.13691112
61	0x3dc559ff	0.09636306
62	0x3c3da28a	0.011574397
63	0x3d2ec035	0.04266377

arr_15 f4 [64]
0	0xbed59f16	-0.41722935
1	0x3e858260	0.2607603
2	0x3ebb5024	0.3658458
3	0x3f024f76	0.509025
4	0x3f24317a	0.64137995
5	0x3eaad57c	0.33366
6	0x3f31a08e	0.6938561
7	0x3f73de1c	0.95260787
8	0xbe3d5e3a	-0.18492976
9	0xbe7e26e1	-0.24819519
10	0xbe36e9bc	-0.178626
11	0xbf010ec6	-0.5041317
12	0x3edd7d29	0.43259552
13	0xbefc4cdb	-0.49277386
14	0xbf26c41d	-0.65142995
15	0x3ff258df	1.8933371
16	0x3f7f9ac4	0.9984553
17	0xbdf330ad	-0.118745185
18	0x3fa0c964	1.256146
19	0x3e04e309	0.12977232
20	0x3ef66f95	0.48132005
21	0xbe1e0eb0	-0.1543529
22	0xbd9aaba8	-0.07552272
23	0x3f132b75	0.57488185
24	0xbe93d481	-0.28873065
25	0x3ef70785	0.48247924
26	0xbed720a6	-0.42017096
27	0xbe944d6b	-0.28965315
28	0x3ed3e665	0.41386715
29	0x3dd07efe	0.10180472
30	0xbf2b564f	-0.6692857
31	0xbe23ca53	-0.1599515
32	0xbf383b5b	-0.7196557
33	0xbeef625a	-0.46754724
34	0x3f26f993	0.6522457
35	0xbecbf33e	-0.39834017
36	0x3f0f6365	0.5601104
37	0x3f120891	0.5704432
38	0x3f01d0e0	0.5070934
39	0x3fab7bc2	1.3397143
40	0xbec0b813	-0.37640437
41	0x3f6d7ae7	0.9276566
42	0x3f011273	0.50418776
43	0x3f01ddf7	0.50729316
44	0xbe767346	-0.24067411
45	0xbf119494	-0.5686734
46	0x3d4fca2a	0.050729908
47	0xbef31f77	-0.47484943
48	0xbeb37573	-0.35050544
49	0x3f6f6d1b	0.93525857
50	0x3ea4e7b9	0.3220804
51	0x3fbfb6ea	1.4977696
52	0x3fb5c055	1.419932
53	0xbe7e2edb	-0.24822561
54	0xbeccd4c0	-0.40006065
55	0xbeac67ab	-0.33672842
56	0x3ead7529	0.3387845
57	0x3eb5f5ec	0.35539186
58	0x3f42da18	0.76114035
59	0x3f432146	0.76222646
60	0x3ebc8b2c	0.3682493
61	0xbf02ddf6	-0.51119936
62	0xbf07a89b	-0.52991647
63	0xbd7bb830	-0.06145495

arr_16 f4 [64]
0	0x3f08f074	0.534919
1	0x3fc01d37	1.5008916
2	0x3fe654c1	1.7994615
3	0x401ef0c8	2.4834461
4	0x4026ae81	2.6044009
5	0x3fa55686	1.291703
6	0x3fdd27ff	1.7277831
7	0x3f959799	1.1686889
8	0x3f3db2b3	0.741008
9	0x3f056113	0.5210125
10	0x3f29d126	0.6633476
11	0x3ed6f23a	0.4198168
12	0x406f27c6	3.7368026
13	0x3e988910	0.2979207
14	0x3e8d8497	0.2764022
15	0x4083278b	4.098577
16	0x3ff9022b	1.9453787
17	0x3ee1f4db	0.44132122
18	0x40aa88ee	5.329215
19	0x3fe324c1	1.7745591
20	0x3fc43deb	1.5331396
21	0x3f3598b8	0.70936155
22	0x3f90cde8	1.1312838
23	0x3f9382e7	1.1524323
24	0x3ed59e49	0.41722324
25	0x40aa286f	5.3174357
26	0x3edd4081	0.43213275
27	0x3ee7c0e0	0.4526434
28	0x40621519	3.5325377
29	0x3f941426	1.1568649
30	0x3e093bfc	0.13401788
31	0x3f2baf3a	0.6706425
32	0x3dacc4b9	0.08435959
33	0x3e6c2bfc	0.23063654
34	0x3f60a711	0.87754923
35	0x3eb8e124	0.3610927
36	0x401057e1	2.2553637
37	0x403eec77	2.9831827
38	0x3ff943c0	1.9473801
39	0x400451fa	2.0675035
40	0x3ecf6175	0.4050404
41	0x40180ff9	2.375975
42	0x4080fbf3	4.0307555
43	0x401613cb	2.344958
44	0x3f09e079	0.53858143
45	0x3e92e403	0.28689584
46	0x3faa3343	1.3296894
47	0x3ee18998	0.44050288
48	0x3f0c727c	0.5486219
49	0x3febe9a0	1.8430672
50	0x3f240adf	0.6407909
51	0x40289d0e	2.6345859
52	0x40276fd5	2.6162007
53	0x3f2208f8	0.63294935
54	0x3ee6a604	0.45048535
55	0x3f2c640a	0.6734015
56	0x4051221b	3.2677066
57	0x4059e59b	3.404639
58	0x3ff0589a	1.8777039
59	0x405483e8	3.320551
60	0x3f6b84da	0.9199959
61	0x3ede51f5	0.43421903
62	0x3f13ac91	0.5768519
63	0x3f9af7b6	1.2106845

arr_17 f4 [64, 4, 8]
0	0x3e4029ca	0.18765941
1	0xbd92ccaa	-0.07167943
2	0x3ddaa1b7	0.10675376
3	0x3d51c02d	0.051208664
4	0x3db06628	0.08613235
5	0x3cc7f885	0.024410496
6	0xbce8faa7	-0.028439833
7	0xbc0d9708	-0.008641966
8	0x3e191b30	0.14951777
9	0xbc51c012	-0.012802141
10	0xbd3304fc	-0.043705925
11	0x3e2d2cd4	0.16911632
12	0xbc353418	-0.011059783
13	0xbd3bab12	-0.045817442
14	0x3de720e3	0.112855695
15	0xbb9bde1a	-0.004756701
16	0x3ea4d635	0.32194677
17	0xbc06bfe7	-0.008224464
18	0x3e189401	0.14900209
19	0xbd7b5d2e	-0.06136816
20	0xbe777cba	-0.24168673
21	0x3e027b80	0.12742424
22	0xbcccc6dd	-0.02499717
23	0x3e159915	0.14609177
24	0xbcd97969	-0.02654715
25	0x3d0aec3f	0.033916708
26	0x3cdd8e86	0.0270455
27	0x3cf6e4b2	0.030138347
28	0x3ce6c577	0.02817033
29	0x3dbf018c	0.09326467
30	0xbc582093	-0.01319136
31	0xbe035dfb	-0.1282882
32	0xbe4014d7	-0.1875795
33	0x3d19a875	0.03751417
34	0x3bba2d35	0.0056816586
35	0xbe45fc27	-0.1933447
36	0xbd184dd1	-0.037183587
37	0x3ca31126	0.019905638
38	0xbd1cb344	-0.0382569
39	0x3e8694fc	0.2628554
40	0xbe895056	-0.26819104
41	0xbcc0c4e0	-0.023531377
42	0x3ec32c22	0.38119608
43	0xbdf2335d	-0.11826203
44	0xbd58492e	-0.052804165
45	0xbe7527a6	-0.23940906
46	0x3bd78031	0.006576561
47	0x3e1205ed	0.14260073
48	0xbcad6c52	-0.021169815
49	0x3dee2aed	0.11629281
50	0x3d29cd38	0.041455477
51	0xbd5b2db4	-0.053510383
52	0xbd15321c	-0.03642474
53	0x3cd2c68e	0.025729444
54	0xbb71141a	-0.0036785663
55	0xbbc63237	-0.0060484665
56	0x3e35c138	0.17749488
57	0xbda5580c	-0.08073434
58	0x3dbc2ea2	0.09188582
59	0x3d33329c	0.043749437
60	0xbcaa6d6f	-0.020804135
61	0xbaa4f205	-0.0012584334
62	0x3e0bbeb4	0.13646966
63	0xbe1a7439	-0.15083398
64	0x3c564be7	0.01307962
65	0x3e208d28	0.15678847
66	0x3c90fbf4	0.017698266
67	0xbe2820e9	-0.16418804
68	0xbe1c92a1	-0.1529031
69	0x3d063cfa	0.032772996
70	0x3dc0e9c9	0.09419591
71	0x3dd4cb50	0.10390341
72	0x3db59bd4	0.088676125
73	0x3d948e1f	0.0725367
74	0xbe405b5d	-0.18784852
75	0x3d702075	0.058624703
76	0x3ebf182f	0.37323138
77	0x3e2d7ed5	0.16942914
78	0x3db97690	0.09055817
79	0xbda36ead	-0.07980094
80	0x3e09c193	0.13452749
81	0xbe05c090	-0.13061738
82	0xbe1ebd55	-0.15501912
83	0xbdcd9232	-0.1003765
84	0xbe167864	-0.14694363
85	0xbda7a807	-0.081863455
86	0x3b884082	0.0041580806
87	0x3d33e641	0.04392076
88	0xbe04bc76	-0.12962517
89	0x3c9bd6e4	0.019023366
90	0xbe30b5a0	-0.17256784
91	0x3d159e4f	0.036527928
92	0xbd43a8f8	-0.047768563
93	0xbdd9325a	-0.10605307
94	0x3cb68ab0	0.022282928
95	0xbe2561f5	-0.16150649
96	0x3e72acf4	0.23698789
97	0xbe363bd4	-0.1779626
98	0xbc0aec67	-0.008479214
99	0x3cb96c53	0.02263466
100	0x3dcfe4e5	0.1015108
101	0x3d9adcd6	0.07561652
102	0x3e12db12	0.14341381
103	0x3d1e0fc5	0.038589258
104	0xbde15f3d	-0.110044934
105	0xbd87323a	-0.06601377
106	0xbdcd8d35	-0.10036699
107	0xbe96cc37	-0.2945268
108	0x3e26a022	0.16272023
109	0x3e15986a	0.14608923
110	0x3d3aca6c	0.0456032
111	0xbe03ae30	-0.12859416
112	0x3d982bb8	0.07430214
113	0x3dc8782d	0.09788547
114	0xbda2c033	-0.07946815
115	0xbcc78bf2	-0.024358723
116	0xbbe6a59e	-0.007038786
117	0xbde992c5	-0.11404947
118	0x3ddab884	0.10679725
119	0xbd8cb051	-0.06869567
120	0x3e0b7389	0.13618292
121	0x3e0f9c65	0.14024504
122	0xbe131e65	-0.14367063
123	0xbe46c54a	-0.19411197
124	0x3ca4e6d5	0.0201296
125	0xbcc433e5	-0.023950526
126	0x3df4583c	0.11930892
127	0xbe01a425	-0.12660272
128	0x3c8bbfa3	0.017059153
129	0x3e5ee7c4	0.21768099
130	0xbd87ddcf	-0.066341035
131	0xbd596c2a	-0.05308167
132	0xbda6adbf	-0.08138608
133	0x3df16d1e	0.117883906
134	0x3dc1b9d8	0.09459275
135	0xbcc63140	-0.024193406
136	0xbc3afbe6	-0.011412596
137	0x3de0e960	0.10982013
138	0x3db38648	0.087658465
139	0x3dec8923	0.11549594
140	0x3d41ba04	0.04729654
141	0x3dc68f4d	0.09695301
142	0xbdb6c530	-0.08924329
143	0x3de822f9	0.113347955
144	0x3d79c988	0.06098321
145	0xbd55a71d	-0.052161325
146	0xbe3a7336	-0.18208012
147	0xbcab9b68	-0.020948127
148	0xbe54fce6	-0.20799598
149	0x3bdd7b04	0.0067590494
150	0xbd7d7da3	-0.061887395
151	0x3dfb2d60	0.12264514
152	0xbc4349ce	-0.011919452
153	0x3da0f328	0.078588784
154	0xbd93e821	-0.072220095
155	0xbd88491d	-0.0665457
156	0x3dc7c372	0.09754075
157	0x3ca68b9f	0.020330248
158	0xbe0b47c9	-0.13601603
159	0x3d06fd4a	0.0329564
160	0x3e35e658	0.1776365
161	0xbdfbed3a	-0.12301107
162	0x3d4120b4	0.04715033
163	0xbd9c0212	-0.076175824
164	0x3d140961	0.036141757
165	0xbb0f0049	-0.0021820238
166	0x3cc8f636	0.024531465
167	0x3dc1d35b	0.09464141
168	0xbca4f46e	-0.020136084
169	0x3d8f0731	0.069837935
170	0xbcf5c469	-0.030000882
171	0xbd931994	-0.07182613
172	0xbc203d7f	-0.009780287
173	0x3d32139c	0.043475732
174	0x3ddafb4c	0.10692462
175	0xbddc7cb7	-0.10765975
176	0x3d44b260	0.048021674
177	0x3ddabc40	0.10680437
178	0xbd743329	-0.059619103
179	0x3dc45d25	0.095880784
180	0xbd154f9d	-0.03645288
181	0xbde88f7b	-0.11355492
182	0x3e110954	0.14163715
183	0x3b7b3626	0.0038331836
184	0xbd1817a9	-0.03713194
185	0x3d22a5b6	0.039708816
186	0x3d79eb9b	0.061015707
187	0xbb53f444	-0.0032341639
188	0xbc08b3e4	-0.0083436705
189	0xbda88cfc	-0.08230016
190	0x3c0e8e79	0.00870096
191	0xbd2a4bf6	-0.04157635
192	0x3e6b2c11	0.22966029
193	0x3d1ce2e1	0.038302306
194	0x3df9da8a	0.12199886
195	0x3cf0eb4b	0.029409071
196	0xbd583090	-0.052780688
197	0xbdedfb64	-0.116202146
198	0xbdd0153c	-0.101603
199	0x3ca97793	0.0206869
200	0x3e5f39f3	0.2179945
201	0x3c1290ef	0.008945688
202	0xbe50b06b	-0.20379798
203	0xbcd9091c	-0.026493602
204	0x3df8eab5	0.12154142
205	0x3e3a5100	0.18194962
206	0x3e3acb9a	0.1824173
207	0xbe18f996	-0.1493896
208	0xbdad715f	-0.084688894
209	0xbe236097	-0.15954815
210	0x3d154698	0.036444277
211	0xbd03a46a	-0.03213922
212	0xbd83b438	-0.064308584
213	0xbd2b33aa	-0.041797318
214	0x3cd9346a	0.02651425
215	0xbd15d240	-0.036577463
216	0x3ca4e8be	0.020130511
217	0xbde752a9	-0.11295063
218	0xbd35c668	-0.044378668
219	0x3d420895	0.047371466
220	0x3d4ea37d	0.050448883
221	0xbd0885ab	-0.0333306
222	0x3dc86613	0.09785094
223	0xbcf62096	-0.030044835
224	0xbbce779d	-0.00630088
225	0x3c66b0af	0.014080211
226	0xbe17d099	-0.14825667
227	0xbd944ba1	-0.072409876
228	0xbdc6db7a	-0.097098306
229	0x3dc7ae59	0.09750051
230	0x3ddcdba7	0.10784083
231	0x3e0b7529	0.13618912
232	0xbe28bbd9	-0.16477908
233	0x3db7f76e	0.0898274
234	0x3e533903	0.20627217
235	0x3d4be9ba	0.049783446
236	0xbd476552	-0.04868061
237	0x3d1f7560	0.038930297
238	0xbda4b5f5	-0.08042518
239	0x3d2c8cc4	0.042126432
240	0xbc0423e1	-0.008065195
241	0xbe5dfea5	-0.2167917
242	0xbe7480f5	-0.23877318
243	0xbc657012	-0.01400377
244	0xbe78ec26	-0.24308833
245	0x3db71a98	0.08940619
246	0xbd6256dc	-0.055258617
247	0xbd084939	-0.033272956
248	0x3d1fd6ce	0.039023213
249	0xbccfb1f1	-0.025353404
250	0xbc33a55d	-0.010964719
251	0x3dd8659d	0.10566256
252	0xbe8538b2	-0.26019818
253	0x3da4a671	0.08039559
254	0xbd97c4d7	-0.07410591
255	0xbd04a377	-0.032382455

arr_18 f4 [4, 8]
0	0xbeaaf37d	-0.33388892
1	0xbe0ac069	-0.13549961
2	0xbe149c53	-0.14512758
3	0x3c8f3b43	0.017484313
4	0x3c24a53c	0.010049161
5	0x3e8c0f2b	0.27355322
6	0x3ca67978	0.020321593
7	0x3e9b3848	0.30316377
8	0xbe4114db	-0.18855612
9	0x3b269863	0.002542042
10	0x3dbf2de2	0.09334923
11	0xbc9e832f	-0.019349663
12	0xbd2b4a63	-0.041818988
13	0x3be8e524	0.007107394
14	0xbead75af	-0.33878848
15	0x3e592515	0.21205552
16	0x3dc39fc2	0.09551956
17	0x3df8b8f5	0.12144653
18	0x3ead405d	0.33838168
19	0xbd89fa39	-0.06737179
20	0x3e4bd469	0.19905247
21	0x3cd36360	0.025804222
22	0xbdbb8408	-0.09156042
23	0x3b82361b	0.003973735
24	0x3da8cc34	0.08242074
25	0xbe07b839	-0.13253869
26	0xbd9b5492	-0.0758449
27	0x3dcd19b4	0.10014668
28	0x3bf938fc	0.00760567
29	0xbe1e809a	-0.15478745
30	0xbbf44509	-0.0074545187
31	0x3e03e5da	0.1288065
