Assignment_2B/checkpoints/saved_models/gru_20250512_095057/final_gru_20250512_095057_weights.npz (npz, 140758 bytes, 25 tensors)

arr_0 f4 [137, 18]
0	0x3a91f4a7	0.0011135534
1	0xba3cf601	-0.00072082883
2	0xbb90823a	-0.0044100555
3	0xba9c31c0	-0.0011916682
4	0xbc077b80	-0.008269191
5	0xba3c1b62	-0.0007175711
6	0x3bc0f970	0.0058891103
7	0x3c207f24	0.009795938
8	0xbb088a51	-0.0020834396
9	0xbbae483c	-0.0053186696
10	0x3b88b0f4	0.004171485
11	0x3bb0f12e	0.0053998446
12	0x3b8e72e2	0.004347191
13	0x350a4700	5.1512325e-07
14	0x3b604c34	0.0034225108
15	0x3aa5e247	0.0012655937
16	0x3b1f3052	0.0024290276
17	0xbc2a9aac	-0.010412853
18	0xbbdd2133	-0.0067483424
19	0xba90fc13	-0.0011061452
20	0x3b820e12	0.0039689625
21	0x3b19b002	0.0023450856
22	0x3b30b38f	0.0026962494
23	0x3bab4405	0.0052266144
24	0x3ad60021	0.0016326943
25	0x3af85ba4	0.001894821
26	0x38a43f05	7.831868e-05
27	0xbba6639b	-0.005077792
28	0x3a1abc74	0.00059027155
29	0xbc1db91b	-0.009626652
30	0x3b2b9138	0.0026179086
31	0x3b33d1a3	0.0027438186
32	0x3b70f870	0.0036769174
33	0xbb291973	-0.0025802522
34	0xbb5636f5	-0.0032686566
35	0xbaaab99b	-0.0013025285
36	0xbaf6beae	-0.0018825138
37	0x3b22e5da	0.002485624
38	0xbbc2416c	-0.005928209
39	0xba5db3a4	-0.00084572495
40	0xbbb826e4	-0.0056198705
41	0x3a91f286	0.00111349
42	0x3bf1b4a5	0.007376271
43	0xbb9f62c7	-0.00486407
44	0xbb13bfb4	-0.0022544684
45	0x3a578537	0.00082214497
46	0xbb832cce	-0.004003144
47	0x3b27c070	0.002559688
48	0xb9c6bfd6	-0.00037908432
49	0xb9f78e3a	-0.00047217478
50	0xbbaa1f75	-0.0051917383
51	0xbb2540b7	-0.0025215575
52	0xb9554a06	-0.00020340839
53	0x3b7fab85	0.0039012146
54	0xbb6808f4	-0.0035405727
55	0xbbbd4617	-0.0057761776
56	0xbbe8761c	-0.007094158
57	0xba5061f9	-0.00079491694
58	0xbb8e21a8	-0.004337508
59	0x3add681a	0.0016891987
60	0x3b79822e	0.0038071978
61	0xbb59c386	-0.0033228113
62	0x3ac65274	0.0015130774
63	0x3b4db382	0.0031387513
64	0xbbbdd1cd	-0.0057928325
65	0x3b119647	0.0022214816
66	0xbb44e630	-0.003004443
67	0xbc0f04d9	-0.008729183
68	0xbb9fe56d	-0.0048796446
69	0xbbe9746b	-0.007124474
70	0xba103ca5	-0.0005502201
71	0x3bc9baff	0.006156325
72	0xbb829810	-0.0039854124
73	0x3b090572	0.0020907787
74	0xbb6ac2e9	-0.0035821742
75	0xb9a6124d	-0.00031675622
76	0xbb2efcbc	-0.0026700934
77	0x3b892728	0.004185576
78	0x3bc667d6	0.0060548587
79	0xba49fceb	-0.0007705229
80	0x3a1f9d70	0.00060888287
81	0xbbd1b823	-0.0064001246
82	0x3b2fbee4	0.002681666
83	0xb9b137a0	-0.00033801515
84	0x3bfd4b95	0.0077299573
85	0x3a4505f2	0.00075158395
86	0xbc1fce5c	-0.00975379
87	0x3b6d7b92	0.0036236984
88	0xbb9ecd5d	-0.0048462586
89	0x3b53a960	0.0032297
90	0xbbca0ac0	-0.0061658323
91	0x3ba717d2	0.005099275
92	0x3b889769	0.00416844
93	0x3aa3d586	0.0012499548
94	0x3bd4dc87	0.0064960155
95	0x3b45b20e	0.0030165943
96	0x3aa2feed	0.0012435593
97	0xbbebccc3	-0.0071960404
98	0x3b056c06	0.0020358576
99	0x3a9a42b5	0.0011769148
100	0xbb6619c3	-0.003511057
101	0xbad07008	-0.0015902529
102	0xbbe5a38f	-0.007008023
103	0x3af5c120	0.0018749572
104	0x39cffb05	0.0003966914
105	0x3b742572	0.0037253764
106	0x3b5538d5	0.0032535095
107	0xb9e12e5e	-0.0004294989
108	0xbba8a367	-0.005146432
109	0x3b25d855	0.0025305946
110	0x39da754f	0.00041667602
111	0xbb8be507	-0.0042692455
112	0x3bdb11bc	0.0066854637
113	0x3bf85503	0.0075784936
114	0x3b6eabf1	0.0036418403
115	0xbbb74248	-0.005592618
116	0xbb24ca93	-0.0025145158
117	0xbb1f2fd8	-0.0024289992
118	0xbb3dbf67	-0.0028953196
119	0xbb468be7	-0.003029579
120	0xbb86c38b	-0.004112666
121	0xbba90717	-0.005158316
122	0x39b1692d	0.00033838433
123	0xbb069a92	-0.0020538908
124	0x3b78ef6b	0.00379845
125	0x3b8100aa	0.0039368467
126	0xbc84f030	-0.016227812
127	0x3b8a067a	0.004212198
128	0x3bc3ffe5	0.0059814327
129	0xbb9ea64d	-0.004841602
130	0x3bf40464	0.0074468125
131	0x3b51d076	0.0032015122
132	0x3c3a0933	0.011354732
133	0xbb9fadda	-0.0048730196
134	0x3bd591cf	0.006517626
135	0xbb81520a	-0.0039465474
136	0xbbb4ed68	-0.005521465
137	0xbbf35d45	-0.00742689
138	0xbb37de23	-0.0028055988
139	0xbbc411bd	-0.00598356
140	0xbbd2f8c4	-0.0064383466
141	0x3b1b4543	0.0023692406
142	0x3b813d77	0.0039440948
143	0x3a837fa5	0.0010032548
144	0x3c3431f4	0.010998238
145	0x39995ce8	0.00029251655
146	0xbc4ef225	-0.012630974
147	0x3a92bbcb	0.0011194883
148	0xbc1558b8	-0.0091153905
149	0xbbc81fe6	-0.006107318
150	0x3b1180ce	0.0022202018
151	0x3ad0a592	0.0015918484
152	0xba3ce6a2	-0.0007205998
153	0x3bca747e	0.0061784377
154	0x3c2e4862	0.010637375
155	0x3c6c4fb1	0.014423297
156	0x3b06a7d5	0.0020546813
157	0x3b685883	0.0035453148
158	0x3bb3ec80	0.0054908395
159	0x3b8e9eab	0.004352411
160	0xbb9cb530	-0.0047823414
161	0xbc2fc010	-0.010726944
162	0x3b6a60d8	0.003576329
163	0xbb7324bb	-0.003710075
164	0xbc068738	-0.00821095
165	0xbb93120e	-0.0044882363
166	0xbcca6517	-0.024706407
167	0xbb601e31	-0.0034197683
168	0xbb15025c	-0.0022737002
169	0xb9c02356	-0.0003664742
170	0x38ace286	8.2437924e-05
171	0x3b5d0e01	0.003373027
172	0x3bb84903	0.005623938
173	0x3b7445b2	0.0037272987
174	0x3b6ca78e	0.0036110613
175	0x3b9b1ede	0.0047339043
176	0x3b3263a6	0.002722004
177	0x3b871db3	0.0041234135
178	0x3bacde3d	0.0052755163
179	0x3b11085f	0.0022130234
180	0xba712be1	-0.0009199959
181	0xbaf38d9e	-0.0018581634
182	0x3baf6dbc	0.0053536575
183	0xbba04a1c	-0.004891647
184	0x3c20140d	0.0097704055
185	0x3b9622a1	0.004581765
186	0x3b2a97dd	0.002603046
187	0xbba3171b	-0.0049771196
188	0x3b26c51b	0.0025447074
189	0xbb178a49	-0.0023123196
190	0xbb513fcb	-0.0031928893
191	0xbc0fb3ab	-0.0087708635
192	0xbb3a8750	-0.0028462
193	0xbb954cfb	-0.004556296
194	0x3b86be1c	0.0041120183
195	0x3b834d0d	0.004006988
196	0xbb02240e	-0.0019857916
197	0x3b7c9cb0	0.0038545541
198	0x3ca3da17	0.020001454
199	0xbbdba43c	-0.006702928
200	0x3b834db6	0.0040070666
201	0x3c280bfd	0.0102567645
202	0xbb65cfb4	-0.0035066428
203	0xbc44cb8e	-0.012011422
204	0xbcd03b16	-0.0254188
205	0x3b104d2f	0.0022018661
206	0xbba5356d	-0.0050417692
207	0x3c057fdd	0.008148161
208	0x3b10a4be	0.002207085
209	0x3c4fca5f	0.012682526
210	0xbbe24cf3	-0.0069061457
211	0x3c3f8afd	0.011690852
212	0x3cdac5e6	0.026705693
213	0xb8ba5d64	-8.8865665e-05
214	0x3c953ec8	0.018218413
215	0x3cf47e80	0.029845476
216	0x3aa9b174	0.0012946562
217	0xbb5bc111	-0.0033531825
218	0x3b63ce17	0.003476029
219	0xbb6b58d9	-0.0035911112
220	0x3c30ee63	0.010799023
221	0x3ac840d7	0.0015278113
222	0xbb9c24a3	-0.0047651096
223	0xbafc0eeb	-0.001923052
224	0xba26f4b4	-0.0006368861
225	0x3b1a9277	0.0023585835
226	0x3aee2f6f	0.0018172095
227	0xbc3f41a5	-0.011673366
228	0xbb412d0f	-0.002947632
229	0xb73e4457	-1.1340794e-05
230	0x3c0f0e82	0.008731486
231	0x3b30ed01	0.0026996734
232	0xb9b36de5	-0.00034223418
233	0x3b7769ea	0.0037752339
234	0xbb891315	-0.004183183
235	0x3bc9dc0b	0.0061602644
236	0xbbdbe12c	-0.006710192
237	0xbbb94024	-0.005653398
238	0xbb9fb8a2	-0.004874305
239	0xbb6203f2	-0.0034487215
240	0x3c57f973	0.013182032
241	0xbbbd9caf	-0.0057865004
242	0x3acaa58f	0.0015460717
243	0xbb6b0dda	-0.003586641
244	0xbb7262fb	-0.0036985266
245	0x3bc83150	0.006109394
246	0x3a2df7ea	0.00066363683
247	0xbb9f387c	-0.0048590284
248	0xbc3ed7fd	-0.011648175
249	0x3b9ede26	0.0048482595
250	0x3ad8229c	0.0016489807
251	0x3be7702c	0.0070629325
252	0xbbc42367	-0.0059856656
253	0x3b47e08c	0.003049883
254	0xbb2637b0	-0.0025362782
255	0xbb57fd8b	-0.003295752

arr_1 f4 [32]
0	0x3f08e317	0.5347151
1	0x3db62f8d	0.08895788
2	0x3dc074bd	0.09397266
3	0x3e1e8989	0.15482153
4	0x3eaa3b47	0.3324835
5	0x3e68f02c	0.22747868
6	0x3f75793e	0.95888126
7	0x3e6c7f3a	0.23095408
8	0x3e8e10ce	0.27747196
9	0x3e27cf51	0.16387679
10	0x3e62bd96	0.22142634
11	0x3ecfe7ce	0.4060654
12	0x3eb8b838	0.36078048
13	0x3f0f7525	0.56038123
14	0x3eac7aa4	0.33687317
15	0x3e370871	0.17874314
16	0x3e9cfab4	0.3066002
17	0x3e0ab8ce	0.1354706
18	0x3ea298b6	0.31757134
19	0x3e37e9e0	0.1796031
20	0x3e52d4ca	0.20588985
21	0x3e595e0b	0.21227281
22	0x3e0eefc6	0.13958654
23	0x3e13a779	0.14419354
24	0x3e3ded83	0.18547635
25	0x3e9269e5	0.28596416
26	0x3e37f77d	0.17965503
27	0x3e57a93a	0.21060649
28	0x3ea1d2ac	0.31606042
29	0x3e57c841	0.21072485
30	0x3e69d25b	0.2283415
31	0x3ea354cc	0.31900632

arr_2 f4 [32]
0	0xbec4e7ad	-0.38458005
1	0x3cf46191	0.02983168
2	0xbc01e854	-0.0079289265
3	0xbd8ac293	-0.06775393
4	0x3d3d4ea2	0.04621757
5	0x3adb9b6c	0.0016754693
6	0x3a029a6e	0.0004982118
7	0x3c102ec4	0.008800212
8	0xbd90d81a	-0.07072468
9	0xbd1e797e	-0.038690083
10	0xbd9edb3b	-0.07756659
11	0xbe0296ee	-0.12752888
12	0xbd343719	-0.043997858
13	0xbdfc6268	-0.12323457
14	0xbcee83b1	-0.02911553
15	0x3c467bde	0.012114493
16	0x3c17c7cc	0.009263944
17	0xbb22df63	-0.0024852387
18	0x3ba952c4	0.005167337
19	0x3a4ecb32	0.0007888555
20	0x3c43ba65	0.011946295
21	0xbc0d4242	-0.008621754
22	0x3b62d4c3	0.003461168
23	0xbb493390	-0.00307009
24	0xbbfed933	-0.007777357
25	0x3bf1574b	0.0073651425
26	0x3bfaa323	0.007648842
27	0x398361f0	0.00025059236
28	0xbd090a97	-0.033457365
29	0x3a925fa9	0.0011167425
30	0xbb81f6ab	-0.0039661727
31	0x3cc9c673	0.02463076

arr_3 f4 [32]
0	0xbb401397	-0.0029308551
1	0xbcc8677d	-0.02446341
2	0x3d87af1b	0.066251956
3	0x3b156968	0.0022798423
4	0xbc20e1d9	-0.009819471
5	0x3e98f0d0	0.29871225
6	0x3622beed	2.4251015e-06
7	0x394863f9	0.00019110729
8	0xbb53222f	-0.003221642
9	0xbb5482cd	-0.0032426596
10	0xbb84429a	-0.00403626
11	0xbb510021	-0.0031890946
12	0x39af0444	0.0003338178
13	0xbb76faba	-0.0037686066
14	0x38dfed25	0.0001067764
15	0xb7e76b9d	-2.7587457e-05
16	0x37e7ff9c	2.7656373e-05
17	0xb8902223	-6.8728135e-05
18	0x39af5c5b	0.0003344741
19	0x391e8aeb	0.00015119805
20	0x39d0149a	0.000396882
21	0xb7600fbd	-1.3355105e-05
22	0x39257e02	0.00015782568
23	0xb83a4359	-4.4408578e-05
24	0x37737cc6	1.451298e-05
25	0x38aeffa1	8.344581e-05
26	0x38f7339e	0.00011787492
27	0xb99e0428	-0.00030139205
28	0x39202529	0.00015272632
29	0xb7009f4d	-7.666485e-06
30	0xb9efcd9d	-0.00045738826
31	0xb87a5b91	-5.9689923e-05

arr_4 f4 [32]
0	0x3f7ecd01	0.9953156
1	0x3ef72471	0.4826999
2	0x3f02a97b	0.51039857
3	0x3f005053	0.50122565
4	0x3efe86bd	0.49712172
5	0x3e5622e4	0.20911747
6	0x3622bb89	2.424904e-06
7	0x3f804a8c	1.002275
8	0x3f7eb066	0.9948791
9	0x3f7ef986	0.9959949
10	0x3f7f0f3b	0.99632615
11	0x3f7ea7f1	0.9947501
12	0x3f802991	1.0012685
13	0x3f7ee26d	0.9956425
14	0x38c19669	9.230973e-05
15	0x37713a66	1.4378316e-05
16	0x3869f542	5.5779943e-05
17	0x3789954b	1.6401193e-05
18	0x389fb77d	7.615888e-05
19	0x37f1c892	2.8822837e-05
20	0x388512ee	6.34546e-05
21	0x37fcc8b2	3.0134197e-05
22	0x370b6fd7	8.311085e-06
23	0x37a45b70	1.9592902e-05
24	0x37b47972	2.1514224e-05
25	0x388b0513	6.628982e-05
26	0x37cf8d33	2.4742074e-05
27	0x380fe2c1	3.4305038e-05
28	0x38e9086a	0.00011111873
29	0x378e8789	1.6990833e-05
30	0x3834cd58	4.3106586e-05
31	0x38edde24	0.000113424176

arr_5 f4 [32, 240]
0	0x3ae389e5	0.0017359821
1	0xbab10feb	-0.0013508772
2	0xb90056b6	-0.00012239334
3	0x3b9eb789	0.0048436564
4	0x39685c29	0.00022159576
5	0x386236c0	5.393359e-05
6	0x3b4510bf	0.0030069796
7	0x3b1b246b	0.002367283
8	0x3996f328	0.00028791395
9	0xbabd1378	-0.0014425358
10	0xb99411de	-0.00028242072
11	0xbb172d41	-0.0023067745
12	0x39c2965c	0.0003711459
13	0x3a9b2274	0.0011835829
14	0xbb433ca0	-0.0029790774
15	0x3a6f8af4	0.0009137832
16	0xb9c3e0ba	-0.00037360733
17	0xba32af6a	-0.00068163
18	0xba6be671	-0.0008998877
19	0x3a8f9b02	0.001095623
20	0xba200552	-0.00061043084
21	0xbb118caa	-0.0022209086
22	0xbb4efd68	-0.0031584147
23	0xbad33956	-0.001611511
24	0xbad5e9bb	-0.0016320267
25	0xba840f62	-0.0010075385
26	0x3a9af790	0.0011823047
27	0x3ab9d7f8	0.0014178744
28	0x3a846fbb	0.0010104099
29	0xb842449e	-4.631711e-05
30	0xbaf6b789	-0.0018823008
31	0x3b1e55f3	0.0024160116
32	0xbacd2a2d	-0.0015652828
33	0xb9a3b223	-0.00031222505
34	0x39a92470	0.0003226134
35	0xba13ac1d	-0.0005633252
36	0xb8864c2a	-6.4038046e-05
37	0x3a669cba	0.0008797158
38	0xba3224f6	-0.0006795669
39	0x3b194ce1	0.002339177
40	0x3a4a486a	0.0007716479
41	0x3a1df8a9	0.0006026128
42	0xba8360a6	-0.001002331
43	0xbaab1b35	-0.0013054373
44	0xba9bb4ef	-0.0011879484
45	0x3bda0504	0.00665343
46	0xbb89aeaf	-0.004201732
47	0xbb3202fa	-0.0027162419
48	0xba16eb64	-0.0005757122
49	0x3b426fad	0.0029668615
50	0xba628b78	-0.0008641998
51	0xbae8d365	-0.0017763196
52	0xb97f091f	-0.00024322093
53	0x38f2eade	0.00011583207
54	0x3a9b9622	0.0011870305
55	0x3c984367	0.018586827
56	0x39ec08a3	0.00045019863
57	0xbaa3fc37	-0.0012511079
58	0xbaa1645a	-0.0012313232
59	0xba75ff6c	-0.0009384069
60	0x3a7e335f	0.0009696986
61	0x39a3e7a5	0.0003126237
62	0x3b12dfb2	0.0022411165
63	0x3ab9abf6	0.0014165628
64	0xba338554	-0.00068481755
65	0x3ae51586	0.0017477728
66	0xbb2f9d66	-0.0026796698
67	0x3785264f	1.5872674e-05
68	0x3a102146	0.0005498122
69	0x3a23c8cc	0.00062478776
70	0xba4d0cb1	-0.00078220206
71	0x3a4a1aec	0.00077097
72	0xb9b72194	-0.00034929498
73	0xba38d2b5	-0.0007050441
74	0x3a1279f2	0.0005587629
75	0xba94df60	-0.0011358075
76	0x3ad68e2d	0.0016369276
77	0x3abf0f76	0.0014576751
78	0xba7fde6a	-0.00097606203
79	0xb9ad2a00	-0.00033028424
80	0xba235e3c	-0.00062319986
81	0xba74d22e	-0.00093391805
82	0xbaa9daf7	-0.0012958933
83	0x39611858	0.00021466741
84	0x39c07647	0.00036709217
85	0xb939fd9a	-0.00017737449
86	0xba36e3f1	-0.0006976715
87	0x39ed42bc	0.00045253884
88	0xb9fc88a5	-0.00048166994
89	0x39192426	0.00014604683
90	0x3a321750	0.0006793635
91	0x38fc0fd7	0.00012019247
92	0xb9b8de41	-0.00035260807
93	0x3abd68e8	0.001445082
94	0x3ab4de80	0.001379922
95	0x3a890399	0.0010453343
96	0x39f206cc	0.000461629
97	0xb9a5f142	-0.00031651004
98	0xb9b14c06	-0.00033816713
99	0xb9ea2b01	-0.00044663998
100	0x3b02fee1	0.0019988345
101	0xb7e82e74	-2.7678187e-05
102	0xba7271c7	-0.00092485215
103	0xba83282e	-0.0010006481
104	0xb990c92a	-0.000276157
105	0x39ef87b1	0.0004568673
106	0xb8cd31d0	-9.78444e-05
107	0x380efb22	3.4089324e-05
108	0x3a45b278	0.00075415475
109	0x3aa5dae8	0.001265374
110	0x3a7a8262	0.0009556172
111	0x39cfef70	0.00039660512
112	0xb9843869	-0.0002521903
113	0xbac4d79a	-0.0015017868
114	0xbac6fcec	-0.0015181578
115	0xb967011e	-0.00022030293
116	0xbad2040d	-0.0016022936
117	0x38957a3a	7.12764e-05
118	0x3a442cb3	0.00074834673
119	0x3a468c33	0.0007573992
120	0x38564e7c	5.109467e-05
121	0x3a6a8182	0.000894569
122	0x39aebbbe	0.00033327745
123	0xba72a4e2	-0.0009256137
124	0xba021434	-0.0004962117
125	0xb914b9c2	-0.0001418358
126	0xbcb7c364	-0.022432037
127	0x3a960e37	0.0011448328
128	0x3971d52c	0.00023062964
129	0x38f8a98a	0.000118571406
130	0x39a22ae6	0.0003093101
131	0xb88c8ad2	-6.7015775e-05
132	0x3a72b7e8	0.00092589715
133	0x3a7c009a	0.0009613127
134	0x394f644a	0.00019778419
135	0xba26a62c	-0.0006357159
136	0x3accef81	0.0015635343
137	0x36cc1910	6.0825914e-06
138	0xb9ccb857	-0.00039047256
139	0x3992d568	0.0002800629
140	0x3a63e0d9	0.00086928677
141	0x3aa5db94	0.001265394
142	0xb94e65f8	-0.00019683677
143	0xb9c19205	-0.00036920622
144	0x394f83f5	0.00019790216
145	0x39c2e42e	0.0003717257
146	0x39ee92f3	0.00045504383
147	0xba76a366	-0.00094085035
148	0x39701f74	0.00022899901
149	0x3a4822b0	0.00076345634
150	0x3939f2f7	0.00017733486
151	0xbaad1b61	-0.0013207012
152	0x39aa1454	0.00032440072
153	0xba75e120	-0.00093795545
154	0x3a7585c0	0.00093659386
155	0xb9716ca7	-0.00023024027
156	0x3a0e4fc7	0.0005428758
157	0x37e967f0	2.7824164e-05
158	0x3960fe56	0.00021457052
159	0xb8a0e5e8	-7.672218e-05
160	0xba1e7ef3	-0.00060461386
161	0xba2d87f7	-0.00066196866
162	0x3c0bb520	0.00852707
163	0xba935ff4	-0.0011243806
164	0xbc9d83c8	-0.019227877
165	0xbb8191ab	-0.0039541326
166	0x3ce9869c	0.02850657
167	0xbbcce773	-0.006253177
168	0xbb8910fe	-0.004182934
169	0xba0fd254	-0.00054863584
170	0xbb6b0f1f	-0.0035867167
171	0x3ab8b2d0	0.0014091376
172	0x3ad5d834	0.0016315044
173	0x3b8b93f4	0.0042595807
174	0x3c0b0ea6	0.008487379
175	0xbd02e270	-0.03195423
176	0x3ac6fa02	0.0015180709
177	0xbb409831	-0.0029387588
178	0xbc3e9f42	-0.01163465
179	0x3ce22fd9	0.027610706
180	0xbb615a21	-0.0034385996
181	0x3adb9f95	0.0016755933
182	0xbc70016b	-0.014648776
183	0xbc2616e4	-0.0101372935
184	0x3b41ba5e	0.0029560546
185	0x3b9df26d	0.004820159
186	0x3c8cdf79	0.017196404
187	0x3cc8fc8b	0.024534484
188	0xbb4142f3	-0.0029489368
189	0x3bb01ee9	0.0053747785
190	0x3c1f279e	0.009714035
191	0xbc34f57b	-0.011044855
192	0x3a55bbae	0.00081532716
193	0x3c005652	0.00783308
194	0xbc1c6d26	-0.009547507
195	0xbaae9c0a	-0.001332165
196	0xbc6a00d4	-0.014282424
197	0xbb9bfaa7	-0.0047601047
198	0xbb90fb37	-0.0044244784
199	0x3d0a677a	0.03379009
200	0x3b5487b0	0.003242951
201	0xbc4e80b6	-0.012603929
202	0xbbd15fed	-0.006389609
203	0x3b40de42	0.002942935
204	0xbc8d3767	-0.017238332
205	0x3d0b7494	0.034046724
206	0x3aeb958b	0.0017973644
207	0xbb2100aa	-0.0024567046
208	0xbb1c6b38	-0.0023867618
209	0x3d003aec	0.031306192
210	0xbb98093c	-0.0046397727
211	0x3b6b9504	0.0035946975
212	0x3b633994	0.003467177
213	0x3b3fcec8	0.0029267538
214	0x3ce76e22	0.028250758
215	0x3b54b052	0.0032453728
216	0x3acd405f	0.0015659443
217	0x3bff7193	0.0077955215
218	0xbc605728	-0.013692655
219	0xbba9782e	-0.0051717972
220	0x3ba19fff	0.004932403
221	0xbb9eaea7	-0.0048425975
222	0x3cd1a993	0.025593555
223	0x3bddec33	0.006772542
224	0xbb8b9740	-0.0042599738
225	0xbd05473e	-0.032538645
226	0xbb7a231e	-0.0038167904
227	0xbb75a2f3	-0.0037481159
228	0x3a22d62c	0.00062117237
229	0x3b2aa928	0.0026040766
230	0x3c50d4bf	0.012746035
231	0x3bb2caaa	0.0054562883
232	0x3bb6bb45	0.0055765235
233	0x3bf0c7b1	0.007348024
234	0x3c0d3daa	0.008620659
235	0xbad457d4	-0.0016200491
236	0x3d02d0ae	0.031937294
237	0xbce4258d	-0.027849937
238	0xbbaa14a4	-0.005190449
239	0xbc23f6a6	-0.010007536
240	0xb9f6a599	-0.00047044156
241	0x37d93772	2.5894235e-05
242	0x39c76c9a	0.00038037152
243	0x3b2083dd	0.002449266
244	0x39cc24ee	0.00038937427
245	0x3a7bfbdb	0.00096124195
246	0x380d5d52	3.370393e-05
247	0x37b8598e	2.1976211e-05
248	0x39a3d6cf	0.00031249828
249	0x397ef94d	0.000243162
250	0x386458f8	5.4442295e-05
251	0x39d9432e	0.00041439518
252	0xb924b337	-0.00015707022
253	0x39886767	0.00026016982
254	0xb9fd1b2a	-0.0004827616
255	0x38a58aee	7.893691e-05

arr_6 f4 [80, 240]
0	0xb982c620	-0.00024943147
1	0x387edbfe	6.0763203e-05
2	0xb7c53950	-2.3510918e-05
3	0x3a4923c2	0.000767287
4	0xb5addc40	-1.2953606e-06
5	0x38b0cbfe	8.4303305e-05
6	0x390670cf	0.0001282126
7	0xb924b58b	-0.00015707889
8	0xb63a3480	-2.7746719e-06
9	0xb9f3e590	-0.0004651961
10	0x38a56752	7.887058e-05
11	0x39296c67	0.00016157479
12	0x36c439a8	5.8479673e-06
13	0x399ab8c4	0.0002951083
14	0xb9fbc0fa	-0.0004801823
15	0xb8f912e6	-0.00011876765
16	0x380fd3d0	3.4291123e-05
17	0x3848ef84	4.7906782e-05
18	0x39aa0d25	0.0003243472
19	0x39734070	0.00023198291
20	0xb99ce5f5	-0.0002992597
21	0x37c90c86	2.3966899e-05
22	0xb883c704	-6.283636e-05
23	0xb98064d2	-0.0002448918
24	0x39622950	0.0002156843
25	0xb93f2079	-0.00018227276
26	0xb8ae8938	-8.3225255e-05
27	0x38e8e1b2	0.00011104661
28	0xb542b780	-7.253766e-07
29	0xb831daf4	-4.2404004e-05
30	0xb9053f1f	-0.00012707383
31	0x39b33d7e	0.00034187356
32	0xb9615e5d	-0.00021492825
33	0xb9987572	-0.00029079203
34	0xb92905b1	-0.00016119216
35	0xb9b217df	-0.0003396859
36	0xb90e9c21	-0.00013600338
37	0xb9b34259	-0.00034190973
38	0x387f3dba	6.0854225e-05
39	0x37720cba	1.4427287e-05
40	0x3998eb85	0.00029167175
41	0xb942bdb5	-0.00018571953
42	0x35153d60	5.559614e-07
43	0x38826146	6.217002e-05
44	0x3921e324	0.00015438773
45	0xb96293f0	-0.0002160815
46	0x3a0a9be8	0.0005287514
47	0xb9a8cae6	-0.00032194628
48	0xb8588a35	-5.162713e-05
49	0xb9da5082	-0.00041640183
50	0xb5c75a20	-1.4852885e-06
51	0x37deadc9	2.6545387e-05
52	0x395c30e7	0.00020999053
53	0xb933f3d4	-0.00017161603
54	0xb86b605a	-5.61181e-05
55	0x3a2401b8	0.00062563596
56	0xb694b748	-4.4320805e-06
57	0x38eea7c4	0.00011379973
58	0xb9537c4d	-0.00020168834
59	0x382335fd	3.891251e-05
60	0xb8e74dab	-0.00011029405
61	0x38bedf46	9.101494e-05
62	0x39998da8	0.00029287976
63	0x38a90884	8.060134e-05
64	0x38362715	4.342858e-05
65	0x3933e7a8	0.00017157069
66	0xb7ef3010	-2.8513401e-05
67	0x3922e200	0.00015533715
68	0x37cce350	2.4424546e-05
69	0x391d4c5e	0.00015001136
70	0xb9b69313	-0.00034823324
71	0xb95af336	-0.00020880703
72	0xb8b53ae8	-8.641725e-05
73	0xb7f9b38a	-2.9766717e-05
74	0x38414534	4.6079236e-05
75	0x390e5cb0	0.00013576704
76	0xb75bbb83	-1.3097076e-05
77	0xb9165d34	-0.00014339836
78	0xb91d9df1	-0.00015031525
79	0x3849b044	4.8086295e-05
80	0xb8af1d11	-8.350064e-05
81	0x38eac16c	0.00011194017
82	0xba1548e0	-0.0005694758
83	0xba025f94	-0.00049733487
84	0x381039d6	3.438614e-05
85	0xb96f384e	-0.00022813791
86	0xb9d183cf	-0.00039961791
87	0x382ec630	4.166941e-05
88	0x39ccde74	0.00039075653
89	0x38a44446	7.832846e-05
90	0x37077ac6	8.0752125e-06
91	0xb8c10924	-9.20466e-05
92	0x398e2b7b	0.00027116746
93	0xb8facd14	-0.00011959128
94	0xb9b0c608	-0.0003371688
95	0xb92429aa	-0.0001565578
96	0x3980190a	0.00024432718
97	0x393df7a9	0.00018116705
98	0xb862e6e6	-5.409764e-05
99	0xb7bca006	-2.2485863e-05
100	0x3892cbdd	6.999795e-05
101	0x38b40110	8.583267e-05
102	0x391f4ec7	0.00015192768
103	0xb88c125b	-6.679139e-05
104	0xb9a32e7e	-0.00031124422
105	0x3930b9fe	0.00016853955
106	0x3930c27f	0.00016857123
107	0x38583494	5.154738e-05
108	0xb856e9ab	-5.1239196e-05
109	0xb7463852	-1.1814833e-05
110	0x3860eb0a	5.362466e-05
111	0xb8f1d675	-0.00011531721
112	0x3905228e	0.00012696741
113	0x373630e0	1.0859425e-05
114	0xb9cd1123	-0.00039113415
115	0x390a2acb	0.00013176647
116	0xb997a272	-0.00028921996
117	0xb86b6687	-5.6123852e-05
118	0xb8a9b145	-8.091567e-05
119	0xb9a4091a	-0.000312873
120	0x381aa6ad	3.687169e-05
121	0x39796a1f	0.00023786024
122	0x3977748a	0.0002359917
123	0x3993cc8b	0.0002819042
124	0x3929e04e	0.00016200656
125	0xb9bfbe98	-0.00036572362
126	0x3a0ea768	0.00054418156
127	0xb8e77a5f	-0.00011037732
128	0x39a7fe6e	0.00032042287
129	0xb98ee307	-0.000272535
130	0x3801b50b	3.0924606e-05
131	0x38bd67a2	9.0315254e-05
132	0xb977fd1e	-0.00023650049
133	0x37c9c4a0	2.4052628e-05
134	0x38998883	7.321036e-05
135	0x395e6560	0.00021209335
136	0xb7d75654	-2.5670197e-05
137	0x3885a527	6.372696e-05
138	0x390c513e	0.00013381706
139	0x39216ed1	0.00015395439
140	0xb97112be	-0.00022990533
141	0xb88f7e62	-6.842312e-05
142	0x38b61bb6	8.683598e-05
143	0x38bef766	9.1059876e-05
144	0x39530f90	0.00020128326
145	0x391b4b58	0.0001481002
146	0xb9b283cf	-0.0003404901
147	0x39d56536	0.00040701934
148	0x387c9fd0	6.023032e-05
149	0x39c618bd	0.00037783934
150	0x38cb0e86	9.6824995e-05
151	0x37bb4351	2.2323484e-05
152	0x3965b0dd	0.00021905029
153	0xb870febc	-5.74577e-05
154	0x3834d4f4	4.3113672e-05
155	0xb7b610d5	-2.1703929e-05
156	0xb86e7d83	-5.6860514e-05
157	0x384612a2	4.7224232e-05
158	0x38fe2f77	0.00012120505
159	0x3959b9cb	0.00020763946
160	0xba88b845	-0.0010430893
161	0x3b0f3674	0.0021852525
162	0x3a9794f4	0.0011564777
163	0x3b214cfa	0.0024612532
164	0x3b9799ff	0.004626512
165	0x3afb3173	0.0019164517
166	0xbb749744	-0.0037321607
167	0x3a2fe20d	0.00067094044
168	0x3b84495f	0.004037067
169	0xbb0e75d4	-0.0021737712
170	0x3bef5bba	0.007304636
171	0x3a1638e2	0.0005730522
172	0x3bf56f37	0.0074900645
173	0xbb0d6b92	-0.002157901
174	0xbb66858a	-0.003517481
175	0x39c40d4e	0.00037393946
176	0xbba9371b	-0.00516404
177	0x36a9f830	5.0654853e-06
178	0x3b3afbb2	0.002853137
179	0xbb096cb4	-0.0020969333
180	0x3b3224f8	0.002718268
181	0xbaac6085	-0.0013151324
182	0x3a9121b8	0.0011072671
183	0xbbe41e17	-0.006961595
184	0x39226b00	0.00015489385
185	0xbb5fabdf	-0.0034129543
186	0xba598162	-0.00082971726
187	0xbadca1c1	-0.0016832874
188	0x3afda947	0.0019352817
189	0xbb4db659	-0.0031389205
190	0x3a9dba83	0.0012033734
191	0xba9c7fa2	-0.0011939893
192	0xbb56e838	-0.0032792222
193	0x3bc06856	0.005871813
194	0xb9a38474	-0.00031188468
195	0x3a9c62dc	0.0011931318
196	0xbcd1a13b	-0.025589576
197	0x3c064c65	0.008196925
198	0x3b697260	0.0035621151
199	0xbaaffe73	-0.0013427272
200	0x3a360d0c	0.0006944693
201	0x3b678098	0.003532445
202	0xba10718d	-0.00055100844
203	0xbb0018d2	-0.0019546044
204	0x39a5e22f	0.00031639772
205	0xbb59c90f	-0.0033231413
206	0xbd6a30dc	-0.057175502
207	0x3c93b5b5	0.01803098
208	0x3bbc8002	0.0057525644
209	0xba4ed9b1	-0.0007890715
210	0xbb19a951	-0.0023446868
211	0xbb16c600	-0.00230062
212	0x3970351e	0.00022907971
213	0xbbd6aec2	-0.0065515945
214	0xbb371189	-0.0027934036
215	0xbb558ce2	-0.0032585193
216	0xbb8eb1aa	-0.0043546753
217	0xbbf193bb	-0.007372347
218	0x3b1f855a	0.0024340958
219	0x3b426935	0.002966476
220	0xbc7dba08	-0.015486248
221	0x3b633441	0.0034668597
222	0xbaf3c1fe	-0.0018597243
223	0xb99daf4b	-0.00030075977
224	0x3b2d2ce3	0.002642446
225	0x3703e888	7.862349e-06
226	0x3b3d177f	0.0028853116
227	0x3b008700	0.0019611716
228	0xbb08d2fb	-0.0020877707
229	0x3ae00b97	0.0017093298
230	0x3c3732a4	0.011181507
231	0x3b89c99e	0.004204943
232	0xbb4b8911	-0.003105704
233	0xbaeb4f6b	-0.0017952746
234	0xbb5963b3	-0.0033170998
235	0x39e3b3a4	0.00043430657
236	0x3a253358	0.00063019013
237	0xba531da0	-0.00080534257
238	0x3be73347	0.0070556733
239	0xbb38694e	-0.0028138938
240	0xb9903a8c	-0.0002750944
241	0xb8282c4a	-4.009557e-05
242	0xb87092d9	-5.735722e-05
243	0xba84a929	-0.0010121214
244	0xb5412422	-7.1950683e-07
245	0xb81f4f04	-3.7982143e-05
246	0xb9bb7ddc	-0.00035761192
247	0x38f146f7	0.00011504994
248	0xb93bb6fa	-0.00017901874
249	0x388fff08	6.8662746e-05
250	0xb8a3bf3c	-7.808066e-05
251	0xb94ac80c	-0.00019338744
252	0xb91dcc11	-0.00015048707
253	0xb95ce70d	-0.00021066908
254	0x38c4dab5	9.386746e-05
255	0xb70dda60	-8.455099e-06

arr_7 f4 [2, 240]
0	0xbefac1b2	-0.48975903
1	0xbeae3ad2	-0.3402925
2	0xbf27f2b7	-0.6560473
3	0x3ef03b24	0.4692012
4	0xbf31f175	-0.6950906
5	0xbdfc1af1	-0.12309826
6	0xbd43df51	-0.047820393
7	0xbed3bae2	-0.41353518
8	0xbe1a6d96	-0.15080866
9	0xbf04b694	-0.5184109
10	0xbf0bf45b	-0.5466973
11	0xbee89fa7	-0.45434305
12	0xbf4c7384	-0.7986376
13	0xbf3082b7	-0.68949455
14	0xbebf9f07	-0.37426016
15	0xbed40d83	-0.4141656
16	0xbf1b06b1	-0.60557085
17	0xbe54fbbf	-0.20799159
18	0x3f19f172	0.6013404
19	0xbeebaf32	-0.460321
20	0xbf414555	-0.7549642
21	0xbf0abfef	-0.5419912
22	0x3f058db3	0.5216934
23	0xbf840162	-1.0312922
24	0xbeda1ef7	-0.4260175
25	0xbf19d723	-0.600939
26	0xbe6f2e3e	-0.23357484
27	0xbebfbf89	-0.37450817
28	0xbe8d5e42	-0.27610976
29	0xbeb31d6f	-0.34983394
30	0xbf3e9393	-0.7444393
31	0x3edc4c6e	0.4302706
32	0xbed2f244	-0.4120046
33	0xbf6c42f6	-0.92289674
34	0xbf595453	-0.84894294
35	0xbec1d75d	-0.37859622
36	0xbfb6e527	-1.4288682
37	0xbf15560a	-0.5833441
38	0xbf0155ff	-0.50521845
39	0xbedc4722	-0.4302302
40	0xbeb0a2a1	-0.34499076
41	0xbed90c05	-0.42391983
42	0xbed42b21	-0.41439155
43	0xbf001cb0	-0.50043774
44	0xbe6b5d0c	-0.22984713
45	0x3e939ab2	0.2882896
46	0xbf641730	-0.8909788
47	0xbf6be2d0	-0.92142963
48	0xbf042cdf	-0.5163097
49	0x3e611650	0.21981168
50	0xbe6a7b4d	-0.22898598
51	0xbd77f380	-0.060534954
52	0xbedb0b1a	-0.42781907
53	0xbf040fbb	-0.515865
54	0xbec6048d	-0.38675347
55	0x3f8a4fce	1.0805604
56	0xbf194382	-0.59868634
57	0xbec937ff	-0.39300534
58	0xbee5af11	-0.44860128
59	0xbf1daede	-0.6159495
60	0xbf372ca0	-0.7155247
61	0xbea64083	-0.32471094
62	0xbef64792	-0.4810148
63	0xbedfad3b	-0.43686852
64	0xbee34980	-0.44392014
65	0xbf073493	-0.52814597
66	0xbf123cef	-0.5712423
67	0xbef9751b	-0.48722157
68	0xbef48d71	-0.4776416
69	0xbe3f40a2	-0.18676999
70	0xbf95d005	-1.1704108
71	0xbf4e737b	-0.8064496
72	0xbeb0e464	-0.34549248
73	0xbe7a6218	-0.24451482
74	0xbe9b8476	-0.30374497
75	0xbf1fb6b5	-0.62388164
76	0xbef1c9af	-0.47224185
77	0xbef21b6b	-0.47286543
78	0xbee27af7	-0.4423444
79	0xbf2e0074	-0.6796944
80	0x3e487af6	0.19578156
81	0x3e7d572a	0.24740282
82	0x3e1faeb7	0.15593992
83	0x3d993f61	0.07482792
84	0x3e65238e	0.22376844
85	0x3df01fe6	0.11724834
86	0x3e25bf38	0.16186225
87	0x3f16c8be	0.5890006
88	0x3ec14280	0.37746048
89	0x3ebed128	0.3726895
90	0x3f1bf55a	0.6092125
91	0x3e85da2d	0.26143017
92	0x3f05b1fe	0.5222472
93	0x3effcd3e	0.49961275
94	0x3ef37678	0.47551322
95	0x3ee6237a	0.4494894
96	0x3eae4352	0.34035736
97	0xbd17a3af	-0.037021335
98	0x3da660cd	0.08123932
99	0x3e7f4f21	0.24932529
100	0x3ef6d0a7	0.48206064
101	0x3eeff804	0.46868908
102	0x3cefc7eb	0.029270133
103	0x3f11f103	0.5700838
104	0x3e3dd3aa	0.18537775
105	0x3ef691a4	0.4815799
106	0xbd57950d	-0.05263238
107	0x3e8c20a1	0.27368644
108	0x3e7f55ec	0.2493512
109	0x3e5698e6	0.20956764
110	0x3d9c7e7d	0.07641313
111	0x3e023c24	0.12718254
112	0x3ed42394	0.41433394
113	0x3ef11a91	0.4709058
114	0x3e868176	0.26270646
115	0x3e83c7d0	0.25738382
116	0x3f9d02c5	1.226647
117	0x3f17ab37	0.5924563
118	0x3efc1e99	0.49242094
119	0x3dfd31c7	0.1236301
120	0xbe506a2b	-0.20353
121	0x3dfe0abb	0.124043904
122	0xbd9818e8	-0.074266255
123	0x3eac0107	0.33594534
124	0xbd5a9eaa	-0.05337397
125	0x3e20a444	0.15687662
126	0x3f294733	0.66124266
127	0x3f611b0e	0.8793191
128	0x3efcf533	0.49405822
129	0x3db7cb55	0.089743294
130	0xbc879ae1	-0.016553344
131	0x3defa1a1	0.1170075
132	0x3e937757	0.28801987
133	0x3f210408	0.62896776
134	0x3dd1b7ea	0.10240157
135	0x3f08a20a	0.5337225
136	0x3f0834df	0.53205675
137	0x3f194654	0.5987294
138	0x3de774cc	0.11301574
139	0x3ef2ad74	0.4739796
140	0x3f44d736	0.76890886
141	0x3e97e693	0.29668102
142	0x3e403427	0.18769895
143	0x3deaf520	0.11472535
144	0x3ea63089	0.32458904
145	0x3e0994af	0.13435625
146	0x3e85afd9	0.26110724
147	0xbd9d6de1	-0.07686973
148	0x3e956020	0.291749
149	0xbd72b5a3	-0.059255254
150	0x3f600184	0.8750231
151	0x3e82a0c0	0.25513268
152	0x3eae8804	0.34088147
153	0xbd640018	-0.055664152
154	0xbd487a00	-0.048944473
155	0x3d837e74	0.064206034
156	0x3e7fd012	0.24981716
157	0x3eb0ef3b	0.34557518
158	0x3f187173	0.5954811
159	0x3ec241a8	0.37940717
160	0x3b2e5df3	0.002660629
161	0xbba1c7c8	-0.004937146
162	0x3bd94cbc	0.006631462
163	0xbbc44d84	-0.005990686
164	0xbb3910ea	-0.0028238841
165	0x3b8ad5e2	0.0042369226
166	0xba35e96b	-0.0006939384
167	0xbbe4b41f	-0.00697948
168	0xbc66ec3d	-0.0140944095
169	0x3b97d347	0.0046333405
170	0xbbe11096	-0.0068684323
171	0x38f453b0	0.00011650415
172	0xbbecdefa	-0.0072287293
173	0xbb05bca6	-0.0020406633
174	0xbc97d53a	-0.018534292
175	0xbc88dc2f	-0.016706554
176	0xba2b8f76	-0.00065445097
177	0x3c073b51	0.008253888
178	0xbc28ce98	-0.010303162
179	0x3c37bb0f	0.011214032
180	0xbb41ce93	-0.002957259
181	0x3b73d8be	0.0037208046
182	0xba8225ab	-0.0009929439
183	0xbb562e53	-0.003268142
184	0x39c56f6b	0.0003765778
185	0xbbc4aff6	-0.0060024215
186	0x3c10cc7d	0.008837816
187	0x3c0d4639	0.008622699
188	0x3aec7c27	0.0018042371
189	0x3c28f13b	0.01031142
190	0xbb985238	-0.004648473
191	0xbc2b618c	-0.010460269
192	0x3a9b1309	0.0011831234
193	0x3ba7cb74	0.005120689
194	0x3a904ecf	0.0011009815
195	0xbb535704	-0.003224791
196	0xbc8a763e	-0.016902085
197	0xbbf6e7f4	-0.007534975
198	0x3c1953f0	0.009358391
199	0x3c2bbf22	0.010482581
200	0x3b323e52	0.002719779
201	0xbbc198f2	-0.005908125
202	0x3a9351ee	0.0011239627
203	0x3bb9e3fc	0.00567293
204	0xbb89ecc4	-0.004209133
205	0x3a81afee	0.000989435
206	0xbcb52a12	-0.022114787
207	0xbb49fbd9	-0.003082028
208	0xbc695fcb	-0.01424403
209	0x3b53a218	0.003229266
210	0x3b4a6a20	0.003088601
211	0xbb2decd9	-0.0026538877
212	0xba8d1687	-0.001076416
213	0x3bffb467	0.007803488
214	0x3c17f17d	0.009273884
215	0xba8e5b9c	-0.0010861042
216	0xba13ee12	-0.000564308
217	0x3b5af53d	0.0033410334
218	0xbb9cf5b4	-0.0047900323
219	0xbaac775d	-0.0013158132
220	0x3859c3cc	5.191918e-05
221	0xbbf7e18a	-0.007564728
222	0x3ba78c67	0.005113173
223	0x3c22765d	0.009915915
224	0xbc3f287b	-0.011667366
225	0xbc459140	-0.012058556
226	0xbb36f4c2	-0.0027916883
227	0x3b2b46e4	0.0026134783
228	0x3a0cb5cf	0.0005367668
229	0xbb6abc90	-0.0035817958
230	0x3b3a26c4	0.0028404454
231	0x3bf0ca5a	0.007348341
232	0xbb41c61f	-0.0029567552
233	0x3bc42639	0.005986002
234	0x3a6d5751	0.00090538437
235	0x3b01386e	0.0019717473
236	0x3c59ec80	0.013301015
237	0xbc3e98b3	-0.011633086
238	0xbc050200	-0.008118153
239	0x3a9265d4	0.0011169263
240	0xbefac1b2	-0.48975903
241	0xbeae3ad2	-0.3402925
242	0xbf27f2b7	-0.6560473
243	0x3ef03b24	0.4692012
244	0xbf31f175	-0.6950906
245	0xbdfc1af1	-0.12309826
246	0xbd43df51	-0.047820393
247	0xbed3bae2	-0.41353518
248	0xbe1a6d96	-0.15080866
249	0xbf04b694	-0.5184109
250	0xbf0bf45b	-0.5466973
251	0xbee89fa7	-0.45434305
252	0xbf4c7384	-0.7986376
253	0xbf3082b7	-0.68949455
254	0xbebf9f07	-0.37426016
255	0xbed40d83	-0.4141656

arr_8 f4 [80]
0	0x3f53afad	0.82689935
1	0x3f7272a2	0.94706166
2	0x3f673d64	0.9032805
3	0x3f51bd7d	0.8192976
4	0x3f6ff4ff	0.9373321
5	0x3f699cd2	0.91254914
6	0x3f74679a	0.95470583
7	0x3f90b1ed	1.1304299
8	0x3f69bc93	0.91303366
9	0x3f591f20	0.8481312
10	0x3f79e40c	0.97613597
11	0x3f6b4b88	0.91912127
12	0x3f76e812	0.9644786
13	0x3f82e6a2	1.0226634
14	0x3f6e7731	0.9315062
15	0x3f743a92	0.9540187
16	0x3f61316c	0.87966037
17	0x3f6ca555	0.92439777
18	0x3f553bb5	0.8329423
19	0x3f7c4c68	0.98554087
20	0x3f8a4af9	1.080413
21	0x3f609749	0.8773084
22	0x3f65bd70	0.89742184
23	0x3f7bd412	0.9837047
24	0x3f7c975f	0.98668474
25	0x3f8bd470	1.0924206
26	0x3f66caea	0.9015337
27	0x3f797662	0.9744626
28	0x3f6a1146	0.9143261
29	0x3f5f8b07	0.87321514
30	0x3f61b9dc	0.88174224
31	0x3f56064f	0.83603376
32	0x3f6df835	0.9295686
33	0x3f73d413	0.95245475
34	0x3f6f5818	0.93493795
35	0x3f5f6d7a	0.8727642
36	0x3f9d7e7a	1.2304223
37	0x3f6ca371	0.9243689
38	0x3f6a6842	0.91565335
39	0x3f6c8fc8	0.9240689
40	0x3f81fd5d	1.0155445
41	0x3f72dd4f	0.9486894
42	0x3f5bf323	0.8591787
43	0x3f5fbb6e	0.8739537
44	0x3f5cccb3	0.86249846
45	0x3f637ccf	0.8886232
46	0x3fd68dc2	1.6762011
47	0x3f8dacd0	1.1068363
48	0x3f70be5b	0.9404046
49	0x3f434c78	0.7628856
50	0x3f6bf79b	0.9217469
51	0x3f6bae4c	0.9206283
52	0x3f577f7d	0.84178907
53	0x3f7dd836	0.99158037
54	0x3f722bac	0.9459789
55	0x3f7c2a6b	0.98502225
56	0x3f814df2	1.0101912
57	0x3f7139b0	0.9422865
58	0x3f6e86cf	0.9317445
59	0x3f613d0e	0.8798379
60	0x3f8e96f1	1.1139814
61	0x3f6ded27	0.9293999
62	0x3f7706c3	0.9649469
63	0x3f5bc6ad	0.8585003
64	0x3f6ae1d3	0.9175083
65	0x3f6db3e2	0.92852604
66	0x3f61234f	0.879445
67	0x3f834e8f	1.0258349
68	0x3f621bc4	0.88323617
69	0x3f7a2059	0.9770561
70	0x3f894a8b	1.0725874
71	0x3f7677a6	0.9627632
72	0x3f5e91b8	0.869411
73	0x3f60f078	0.87866926
74	0x3f77c77a	0.9678875
75	0x3f827699	1.0192443
76	0x3f65da23	0.89785975
77	0x3f70c1cf	0.9404573
78	0x3f7288de	0.9474009
79	0x3f5ac941	0.8546334

arr_9 f4 [80]
0	0xbe474804	-0.19461066
1	0x3d8b0031	0.06787146
2	0x3dc86252	0.09784378
3	0xbd5dcc8e	-0.054150157
4	0x3e0b6151	0.13611342
5	0x3d956647	0.072948985
6	0xbda61453	-0.08109345
7	0xbd8e1cba	-0.06939073
8	0x3db1f08b	0.08688458
9	0xbde1c5bb	-0.11024042
10	0x3dc838e8	0.09776479
11	0x3dabd71d	0.08390639
12	0xbd02fbc9	-0.031978402
13	0x3dc511a1	0.09622503
14	0xbe19fe4c	-0.15038413
15	0xbe63826b	-0.2221772
16	0xbd357793	-0.044303488
17	0x391fbd53	0.0001523395
18	0xbc6683ac	-0.014069479
19	0xbe4e4d09	-0.20146574
20	0xbdd00d28	-0.10158759
21	0xbdc63bf9	-0.096794076
22	0x3d642093	0.055695128
23	0xbd9db981	-0.07701398
24	0x3dd13a76	0.10216229
25	0x3d77043b	0.06030677
26	0xbdef7ae7	-0.11693364
27	0x3c99c0d7	0.018768711
28	0x3e15c84a	0.14627185
29	0xbe293970	-0.16525817
30	0xbc44de49	-0.012015888
31	0xbcbe8dce	-0.023260977
32	0xbd963b7b	-0.07335564
33	0xbc55e702	-0.013055565
34	0xbd4a0aa2	-0.049326546
35	0x3dbbf3ef	0.09177386
36	0xbe971115	-0.2950522
37	0x3e1b63cd	0.1517479
38	0x3ca42d0c	0.020041011
39	0x3e577a3b	0.21042721
40	0xba0dbf8c	-0.0005407266
41	0xbd114207	-0.03546336
42	0xbe2abe52	-0.16674164
43	0xbda62cda	-0.081140235
44	0xbc9f1f5e	-0.019424137
45	0xbe11022f	-0.14160989
46	0xbd5dcbef	-0.054149564
47	0x3e08b1ee	0.13349125
48	0x3df20bb6	0.1181864
49	0xbdad63e7	-0.084663205
50	0x3ad03685	0.0015885389
51	0xbdbd391d	-0.09239409
52	0xbe10ad49	-0.14128603
53	0x3d4f321f	0.05058491
54	0x3d98b643	0.07456639
55	0x3ded07eb	0.11573776
56	0xbde4058d	-0.11133871
57	0xbdc55496	-0.09635274
58	0xbc3a88c5	-0.011385147
59	0x3d5fd178	0.054643124
60	0xbe1fcc91	-0.1560538
61	0xbc242b10	-0.0100200325
62	0xbda75855	-0.08171145
63	0x3dca7c1d	0.09886954
64	0x3dcdf608	0.10056692
65	0xbe4ae673	-0.19814472
66	0x3df21271	0.11819924
67	0x3cfdf17d	0.03099894
68	0xbe01fd40	-0.12694263
69	0xbcc8f937	-0.024532897
70	0x3e0d05d5	0.13771756
71	0xbd7817c8	-0.060569555
72	0x3d264ded	0.04060166
73	0xbe0c127d	-0.13678928
74	0xbdb04391	-0.08606637
75	0x3d7f4ef3	0.06233115
76	0x3e450f2c	0.19244069
77	0xbddffb63	-0.1093662
78	0x3de5ed88	0.11226946
79	0xbd982dc3	-0.07430603

arr_10 f4 [80]
0	0xb99d8cf9	-0.00030050406
1	0xbaa0efb7	-0.0012278472
2	0xba1e15a9	-0.00060304493
3	0xba8030da	-0.0009780184
4	0x39e04588	0.00042776414
5	0xbab045d4	-0.0013448545
6	0xbb84a495	-0.00404794
7	0x3a017ec1	0.0004939847
8	0x3a1e07d0	0.0006028386
9	0xbaba34d8	-0.0014206422
10	0xba0b450f	-0.000531272
11	0xbad8eae3	-0.0016549494
12	0x3a3c4c66	0.0007183015
13	0x38dc19b6	0.000104952065
14	0x3a4d507a	0.00078321213
15	0xbb9da36c	-0.004810741
16	0xba937dbf	-0.0011252685
17	0xba125bb8	-0.0005583125
18	0xbae22a06	-0.0017254956
19	0x39150c03	0.00014214222
20	0xbaa83f01	-0.001283616
21	0xba989cec	-0.0011643446
22	0x3a33de17	0.0006861402
23	0x3a71f926	0.00092305464
24	0xbad8bbd3	-0.0016535468
25	0xba225164	-0.0006191938
26	0x3a851d12	0.0010155758
27	0x3a3b59de	0.0007146875
28	0x3b06f356	0.0020591817
29	0xbb05039d	-0.0020296343
30	0x3a1385f7	0.00056275673
31	0xb8790d54	-5.937864e-05
32	0xba9e39bd	-0.0012071651
33	0x38e02f8c	0.00010690009
34	0x3a729692	0.0009254004
35	0x39b1235a	0.0003378641
36	0x3a3f7ec1	0.00073049596
37	0xba8f766d	-0.0010945328
38	0x3920f3ce	0.00015349613
39	0x3b630307	0.0034639256
40	0x3ad88222	0.0016518275
41	0xb9f74fc9	-0.00047170956
42	0x3a1a8d87	0.0005895723
43	0xbb4e0c44	-0.0031440416
44	0x3a94fe2e	0.0011367255
45	0xbb4d3a60	-0.0031315312
46	0x3989c37e	0.0002627633
47	0xb9f55473	-0.0004679296
48	0x3a1723d2	0.00057655305
49	0x3a3da81c	0.0007234828
50	0x3a8f48d1	0.0010931735
51	0xb9b2b749	-0.00034087364
52	0x3a913015	0.0011076952
53	0x3a90a52f	0.0011035557
54	0x39f0df91	0.00045942937
55	0x3b37a6b1	0.002802294
56	0xba536f9c	-0.00080656423
57	0xb9a8d37e	-0.0003220103
58	0x399e6f06	0.00030218827
59	0x39eceb35	0.0004518867
60	0xb8acdb70	-8.2424725e-05
61	0xba9e3aaa	-0.0012071927
62	0x3ae9166a	0.0017783169
63	0x398b7ede	0.0002660667
64	0x39d25e48	0.00040124566
65	0xbb58c88f	-0.0033078527
66	0xba3ea585	-0.0007272589
67	0xba72776d	-0.0009249363
68	0x3af16c31	0.0018419084
69	0xbab90d4f	-0.0014118346
70	0x3a7d9b38	0.00096743135
71	0x3ab48cfc	0.0013774927
72	0xbaa0e486	-0.0012275137
73	0xb8dd67d1	-0.000105574385
74	0xb96f97bb	-0.0002284934
75	0x3ac93b8f	0.0015352833
76	0x3aec09ff	0.001800835
77	0xbaa60d05	-0.0012668675
78	0x3aacb262	0.0013175721
79	0xba7e194b	-0.00096931

arr_11 f4 [80]
0	0x38f9bc10	0.000119082746
1	0x38c9e426	9.626923e-05
2	0x38d71694	0.000102562044
3	0x38dfb492	0.000106671025
4	0x38a55de0	7.885299e-05
5	0x38b9675d	8.84074e-05
6	0x38c18813	9.228303e-05
7	0x391a0bb6	0.00014690947
8	0x38bb0cd0	8.9192414e-05
9	0x38e9f288	0.00011155481
10	0x387c292c	6.0119826e-05
11	0x38f04731	0.00011457352
12	0x38ed91cc	0.000113281974
13	0x38cd5886	9.7916505e-05
14	0x38a78441	7.987815e-05
15	0x391146cb	0.0001385465
16	0x38c8848c	9.561432e-05
17	0x38c36849	9.317749e-05
18	0x3941721f	0.00018448428
19	0x38a35df8	7.789949e-05
20	0x38f41006	0.00011637811
21	0x38c7da15	9.5296804e-05
22	0x394ffd5f	0.00019835446
23	0x38e955a5	0.00011126258
24	0x38ff1000	0.00012162328
25	0x38f071f4	0.00011465317
26	0x3887f8d5	6.48365e-05
27	0x38a48b31	7.846056e-05
28	0x38b73b1f	8.737132e-05
29	0x39047857	0.00012633331
30	0x391733c6	0.0001441977
31	0x393086b0	0.00016834843
32	0x38dd089b	0.00010539704
33	0x3912c1b2	0.00013995802
34	0x391f8cc6	0.00015215864
35	0x38bc37f9	8.974964e-05
36	0x39186f35	0.00014537277
37	0x38b96eb7	8.84211e-05
38	0x38a06850	7.648824e-05
39	0x39107cd4	0.00013779412
40	0x39466ecb	0.00018924025
41	0x38efa5cd	0.00011427291
42	0x38bb5e2a	8.934394e-05
43	0x388d6dd0	6.743858e-05
44	0x38c229c5	9.258421e-05
45	0x3947715e	0.00019020351
46	0x372078cf	9.564871e-06
47	0x387df712	6.0550003e-05
48	0x38bbdef4	8.958383e-05
49	0x39408704	0.00018360844
50	0x38e99a54	0.00011139052
51	0x38e3847b	0.0001084888
52	0x38d3bab7	0.000100960424
53	0x386b737c	5.613592e-05
54	0x38b79174	8.753213e-05
55	0x39a214bf	0.00030914505
56	0x3906adc8	0.00012843974
57	0x389132d1	6.923604e-05
58	0x387ef6cd	6.078817e-05
59	0x38b3672c	8.5546024e-05
60	0x3888ecc3	6.529086e-05
61	0x38469dd2	4.735386e-05
62	0x38f3d7d6	0.000116273455
63	0x38c1499a	9.2166665e-05
64	0x38a2a9a4	7.75636e-05
65	0x390f6d17	0.00013678182
66	0x38b2c251	8.523896e-05
67	0x3921d5e5	0.00015433838
68	0x38eaec73	0.000112020316
69	0x38c31d88	9.303825e-05
70	0x39054740	0.00012710411
71	0x390ac800	0.00013235211
72	0x389cda52	7.479325e-05
73	0x38c1dda4	9.244241e-05
74	0x392352d6	0.0001557575
75	0x38f7df5d	0.000118194825
76	0x390e13ad	0.00013549505
77	0x38dde6b2	0.000105810715
78	0x38b43302	8.59257e-05
79	0x390e0419	0.00013543702

arr_12 f4 [80, 32]
0	0xbac895ca	-0.001530343
1	0x3ba3fde7	0.0050046328
2	0xbc00917a	-0.007847184
3	0xbc8156d2	-0.01578847
4	0xbc28d8a7	-0.01030556
5	0x3c84a707	0.016192926
6	0x3c19feab	0.0093990965
7	0x3c24d8c2	0.010061445
8	0x3c130972	0.00897442
9	0x3acf9c94	0.0015839511
10	0x3b1c7f69	0.0023879653
11	0x3cd228c1	0.025654199
12	0x3c07e6f0	0.008294806
13	0x3c63c64e	0.01390226
14	0xbb8b2b20	-0.0042470843
15	0x392ac296	0.00016284952
16	0x3bf0f923	0.007353918
17	0x3b9627af	0.0045823674
18	0xbb1c4753	-0.0023846223
19	0xba0a1f96	-0.0005268989
20	0xba098b23	-0.0005246868
21	0x3bb084bc	0.005386917
22	0xbaaabd92	-0.0013026467
23	0x3c083d98	0.008315466
24	0xba9fbbd7	-0.0012186718
25	0x3b9ea0a1	0.004840926
26	0x3b95fdfe	0.0045773974
27	0xbc1c4cbe	-0.009539781
28	0x3a5713b5	0.00082045357
29	0xbbea4d56	-0.0071503324
30	0x3c6a625d	0.014305678
31	0xbc80b6f9	-0.015712248
32	0xbd01ff5d	-0.031737674
33	0xbbf6b38d	-0.0075287283
34	0xbc4ac64b	-0.012376378
35	0x3c8edb0c	0.017438434
36	0x3b1ebeb9	0.0024222566
37	0xbbf31ff2	-0.0074195797
38	0xbc588769	-0.013215878
39	0xbb2018fe	-0.002442896
40	0xbbdbd1e3	-0.00670837
41	0x3c80ec57	0.015737696
42	0x3bf510ac	0.007478794
43	0x3b308d8d	0.002693984
44	0xbb93ba6e	-0.004508308
45	0xbba2e05f	-0.004970595
46	0x3c60da35	0.0137239
47	0xbc343fd4	-0.011001546
48	0xbc495075	-0.012287249
49	0xbaf80105	-0.0018921202
50	0x3c421ef3	0.011848199
51	0x3ae8a2fd	0.001774877
52	0xbc037a43	-0.008024755
53	0xbb82ed9e	-0.0039956113
54	0x3bdc8200	0.0067293644
55	0x3d1a8443	0.03772379
56	0x3c22e7ed	0.009942991
57	0x3b9d741e	0.004805102
58	0xbbd7150d	-0.0065637887
59	0x3c0d6885	0.008630876
60	0xbc26bcf0	-0.010176882
61	0x3c44068d	0.011964452
62	0xbc28aef2	-0.010295616
63	0xbc2764e5	-0.010216926
64	0xbc3bcede	-0.011462895
65	0xba3b6f09	-0.00071500294
66	0xbb2f85f5	-0.0026782725
67	0x3cccde48	0.025008336
68	0x3b8f71cd	0.00437758
69	0x38e54eb9	0.00010934234
70	0x3b8104ee	0.0039373552
71	0xbb8f4f1d	-0.0043734447
72	0xbc160dd5	-0.009158571
73	0xbc0559db	-0.008139099
74	0x3b8af3bf	0.0042404826
75	0xbcab3163	-0.020897573
76	0xbc7316db	-0.014836992
77	0xbb75bef5	-0.0037497852
78	0x3b3e7f9d	0.0029067763
79	0xbbe95c59	-0.0071216044
80	0xbb40eda8	-0.002943853
81	0xbb233a6a	-0.0024906644
82	0x3bb76e48	0.0055978633
83	0xbac06392	-0.0014678112
84	0xba2b045b	-0.00065237813
85	0xbb448c95	-0.002999102
86	0x3bc3d0a3	0.005975799
87	0x3ccc85f5	0.02496622
88	0x3b24c501	0.0025141838
89	0xbbf6b693	-0.0075290888
90	0xbbb4ac36	-0.005513693
91	0x3bdccf97	0.006738614
92	0xbc00281c	-0.007822063
93	0x3c650644	0.013978545
94	0xbb989271	-0.004656129
95	0x3d046edb	0.032332283
96	0xbc1244fb	-0.008927579
97	0x3c0369f4	0.008020867
98	0xbbe44906	-0.006966713
99	0xbbbd5690	-0.0057781413
100	0xba2b2a6b	-0.0006529453
101	0x3c6720a2	0.014106901
102	0x3a85aa5e	0.0010197868
103	0x3b45d606	0.0030187382
104	0x3be2c69b	0.0069206483
105	0xbc3e3e58	-0.011611544
106	0xbb7631e4	-0.0037566358
107	0xbb42bf42	-0.002971605
108	0x3c912a0c	0.017720245
109	0x3c3a2fc7	0.01136393
110	0xbbda326a	-0.006658842
111	0xbba8792f	-0.0051413993
112	0xbc3d5751	-0.011556462
113	0xbbf2788e	-0.007399625
114	0xba452a46	-0.0007521253
115	0xb8579b32	-5.140453e-05
116	0x3c071a02	0.008245947
117	0x3ba28893	0.0049601286
118	0xbb4b291d	-0.0030999847
119	0x3c0b1f39	0.008491331
120	0xbc89c816	-0.016819041
121	0xbc312295	-0.010811468
122	0x3bbd7e56	0.0057828827
123	0x39d8fda8	0.0004138772
124	0x3c2ba497	0.010476253
125	0xb8a34a84	-7.786325e-05
126	0x3bf83ad8	0.007575374
127	0x3ce9b0fe	0.02852678
128	0x3bc658ec	0.006053081
129	0xbd00dae6	-0.031458758
130	0xbc72bcce	-0.014815522
131	0x3b84d24e	0.0040533906
132	0x3bfba44a	0.007679497
133	0x3c4ee334	0.012627412
134	0xbc8f08da	-0.017460275
135	0xbbf4f6fb	-0.0074757314
136	0xbc0c28d0	-0.008554652
137	0x3b89db47	0.004207048
138	0x3be9136e	0.007112912
139	0x3baecc07	0.0053343805
140	0x3cd36e81	0.025809528
141	0xbbed1836	-0.007235552
142	0x3bbb2715	0.005711446
143	0x3c6bb7ca	0.01438708
144	0xb9f9791f	-0.00047583223
145	0xbcf05e91	-0.029341968
146	0x3b323ce2	0.0027196934
147	0x3bcc5467	0.0062356475
148	0x3b73ae8f	0.0037182902
149	0xbb9fbeb1	-0.004875027
150	0x3b87e73c	0.0041474383
151	0xbc2d69f3	-0.010584342
152	0xbd1fa5b2	-0.03897638
153	0xbc62ccb7	-0.013842753
154	0xbaf0d48d	-0.0018373892
155	0x3c888f94	0.016670026
156	0x3b5ff325	0.0034172025
157	0xbcbadb1b	-0.022809556
158	0xbc7121dc	-0.014717545
159	0x3b278d03	0.0025566227
160	0xbcf37b0d	-0.029721761
161	0xbc779597	-0.015111349
162	0xbbf692dc	-0.007524831
163	0x3c3b34d7	0.011426172
164	0x3b4ee7e9	0.0031571335
165	0xba770e48	-0.00094244303
166	0xbc66aa05	-0.014078622
167	0xbb727b16	-0.0036999634
168	0xbc02d2d6	-0.0079848375
169	0x3c73476d	0.014848572
170	0x3c0dc6e6	0.008653378
171	0x3b1cf2a2	0.0023948331
172	0x3bb08f14	0.00538815
173	0x3b837508	0.004011754
174	0x3c31f871	0.010862456
175	0xba8308bf	-0.0009997113
176	0xbb7eed94	-0.0038898932
177	0xba210083	-0.0006141739
178	0x3be48138	0.006973412
179	0x3ad91e9d	0.001656491
180	0xbad5da76	-0.0016315717
181	0xbc0a4f21	-0.008441717
182	0x3c26483b	0.010149057
183	0x3d11b972	0.035577245
184	0x3a96edea	0.0011514996
185	0x3abf3d35	0.0014590385
186	0xbbef1560	-0.0072962493
187	0x3c1cc300	0.009567976
188	0xbc3d8530	-0.011567399
189	0x3a682cb1	0.0008856757
190	0x3b6153b4	0.0034382166
191	0xbb8fd3e8	-0.004389275
192	0x3bba1731	0.005679034
193	0x3d14d893	0.036339354
194	0xbb60d8cc	-0.0034308909
195	0x3a449d9e	0.00075002934
196	0xbbdce8d7	-0.006741624
197	0xbc01aaa9	-0.007914224
198	0x3a8e6111	0.0010862668
199	0xb8c1fe93	-9.250375e-05
200	0x3bc2e357	0.005947511
201	0xbb2abd7b	-0.002605288
202	0x3b55a4c2	0.0032599424
203	0x3bcae90d	0.0061923326
204	0x3ad00f36	0.0015873674
205	0x3cbccd7d	0.023047203
206	0x3c7e241b	0.015511538
207	0xba69be4a	-0.00089166
208	0xbc9e8d5d	-0.019354517
209	0xbc00d375	-0.007862915
210	0x3be1a5f7	0.0068862396
211	0xbc4fb912	-0.012678402
212	0xbc357f82	-0.0110777635
213	0xbb5d1b53	-0.003373821
214	0xbb2aa693	-0.0026039227
215	0xbb1653ec	-0.0022938205
216	0x3d1aacd7	0.03776249
217	0x3b9eca51	0.0048458953
218	0xbbd17ca4	-0.006393032
219	0xbca73154	-0.020409264
220	0xbb9b8f1a	-0.0047472836
221	0x3be357db	0.0069379634
222	0xbb1c54f5	-0.002385435
223	0x3c0649e7	0.008196331
224	0x3b9e0c26	0.0048232256
225	0x3b4eb3a6	0.0031540184
226	0x3d346ea9	0.044050846
227	0x3b897504	0.0041948576
228	0xbba5b23b	-0.005056647
229	0xbc4cc03c	-0.012497004
230	0xbc25a787	-0.010110742
231	0xbb7d1648	-0.0038618017
232	0x3b917445	0.0044389092
233	0x3cf4229e	0.029801663
234	0xbb671b5b	-0.0035264108
235	0xbbbd714f	-0.0057813297
236	0xbb9f4b4b	-0.0048612705
237	0xbaa7e2a1	-0.001280863
238	0x3c48fb67	0.01226697
239	0x3c88cf67	0.01670046
240	0xbc034ffe	-0.008014677
241	0x3ceb9972	0.028759692
242	0xbb6c9875	-0.0036101614
243	0xb9897155	-0.00026215115
244	0xbc006095	-0.007835527
245	0xbbb58a15	-0.0055401423
246	0xba5e690d	-0.0008484282
247	0xbc8b918f	-0.017037181
248	0x3b8a63ea	0.0042233365
249	0x3d32eacb	0.043680947
250	0xba509989	-0.0007957449
251	0x3be85dee	0.0070912754
252	0xbb1a4833	-0.002354157
253	0x3cfb53c7	0.030679597
254	0xbc28763d	-0.010282096
255	0xbc17abb8	-0.0092572495

arr_13 f4 [32]
0	0x3d27a5ba	0.040929534
1	0xbe462b52	-0.19352463
2	0x3ce140a1	0.027496638
3	0xbe285b2e	-0.16441032
4	0x3e6d79e4	0.23191029
5	0xbe176677	-0.14785181
6	0xbd804459	-0.06263036
7	0x3daa31fb	0.08310314
8	0x3e8501f8	0.25978065
9	0xbaf39dfc	-0.0018586512
10	0x3bc0b6dc	0.0058811735
11	0x3c82bc3f	0.015958903
12	0xbe13c0be	-0.14428994
13	0xbd023f9d	-0.031798948
14	0xbd50a913	-0.05094249
15	0x3d259f57	0.04043516
16	0x3cebae0b	0.028769514
17	0x3cafc467	0.021455957
18	0x3ef16829	0.4714978
19	0x3c94ac33	0.018148517
20	0x3d388695	0.045050222
21	0x3dd6e0eb	0.104921184
22	0x3f128a65	0.57242423
23	0xbdd60985	-0.104510345
24	0xbd8d72dc	-0.06906673
25	0x3b58d0ec	0.0033083512
26	0x3e18b4f6	0.14912781
27	0xbdf25b92	-0.11833872
28	0x3e4001b9	0.18750657
29	0xbdf2e2e2	-0.11859681
30	0xbd2cfa0f	-0.042230662
31	0xbdfaac80	-0.12239933

arr_14 f4 [32]
0	0x3f837ab1	1.0271817
1	0x3f731d43	0.94966525
2	0x3f5612a5	0.836222
3	0x3f82b6b0	1.0212002
4	0x3f5eea59	0.87076336
5	0x3f77c8a9	0.9679056
6	0x3f83b57a	1.0289757
7	0x3f6e9688	0.9319844
8	0x3f6ed71e	0.9329699
9	0x3f6a4262	0.9150754
10	0x3f551186	0.83229864
11	0x3f656a99	0.8961578
12	0x3f709766	0.93981016
13	0x3f7e6c95	0.99384433
14	0x3f7c24ef	0.98493856
15	0x3f65b1d2	0.8972446
16	0x3f6b3a48	0.91885805
17	0x3f5f317d	0.8718489
18	0x3f5dfb48	0.8671155
19	0x3f6f94ff	0.93586725
20	0x3f6c8914	0.92396665
21	0x3f688091	0.90821177
22	0x3f6bd7f4	0.92126393
23	0x3f62453f	0.8838691
24	0x3f6e7507	0.9314732
25	0x3f6f18f9	0.9339748
26	0x3f6de6d0	0.92930317
27	0x3f80c725	1.0060774
28	0x3f73885d	0.9512995
29	0x3f838751	1.027567
30	0x3f8228ce	1.0168703
31	0x3f804e3b	1.0023874

arr_15 f4 [32]
0	0x3e1e88a5	0.15481813
1	0xbd34510f	-0.044022616
2	0x3f05178a	0.5198904
3	0x3eb2dd69	0.34934548
4	0x3e3be08e	0.1834738
5	0xbd867c81	-0.06566716
6	0x3e900791	0.28130773
7	0x3e94cdb6	0.29063195
8	0xbe347017	-0.17620884
9	0x3ee5f589	0.4491389
10	0x3eba4272	0.3637882
11	0xbe16c226	-0.14722499
12	0x3d8acf8c	0.06777868
13	0x3e2d8dc8	0.16948617
14	0x3e7ee18b	0.24890725
15	0x3f0d3d4e	0.5517167
16	0x3eb001de	0.34376425
17	0x3ee9d902	0.45673376
18	0xbbe7bedc	-0.0070723128
19	0xbd47c441	-0.048771147
20	0xbe1694a9	-0.14705147
21	0x3e84a0b4	0.25903857
22	0x3d7c2e12	0.061567374
23	0x3ca44a6d	0.02005502
24	0xbd3442d3	-0.04400904
25	0x3efe3a84	0.4965402
26	0x3e063721	0.13106968
27	0x3ebc7bbf	0.3681316
28	0x3d859bca	0.06523855
29	0x3e9a1933	0.3009735
30	0x3eb01f2f	0.3439879
31	0xbd0e946e	-0.034809522
